node {
  name: "input"
  op: "Placeholder"
  attr {
    key: "dtype"
    value {
      type: DT_FLOAT
    }
  }
  attr {
    key: "shape"
    value {
      shape {
        dim {
          size: -1
        }
        dim {
          size: 360
        }
        dim {
          size: 480
        }
        dim {
          size: 3
        }
      }
    }
  }
}
node {
  name: "ENet/initial_block_1_conv/weights/Initializer/random_uniform/shape"
  op: "Const"
  attr {
    key: "_class"
    value {
      list {
        s: "loc:@ENet/initial_block_1_conv/weights"
      }
    }
  }
  attr {
    key: "dtype"
    value {
      type: DT_INT32
    }
  }
  attr {
    key: "value"
    value {
      tensor {
        dtype: DT_INT32
        tensor_shape {
          dim {
            size: 4
          }
        }
        tensor_content: "\003\000\000\000\003\000\000\000\003\000\000\000\r\000\000\000"
      }
    }
  }
}
node {
  name: "ENet/initial_block_1_conv/weights/Initializer/random_uniform/min"
  op: "Const"
  attr {
    key: "_class"
    value {
      list {
        s: "loc:@ENet/initial_block_1_conv/weights"
      }
    }
  }
  attr {
    key: "dtype"
    value {
      type: DT_FLOAT
    }
  }
  attr {
    key: "value"
    value {
      tensor {
        dtype: DT_FLOAT
        tensor_shape {
        }
        float_val: -0.20412415266
      }
    }
  }
}
node {
  name: "ENet/initial_block_1_conv/weights/Initializer/random_uniform/max"
  op: "Const"
  attr {
    key: "_class"
    value {
      list {
        s: "loc:@ENet/initial_block_1_conv/weights"
      }
    }
  }
  attr {
    key: "dtype"
    value {
      type: DT_FLOAT
    }
  }
  attr {
    key: "value"
    value {
      tensor {
        dtype: DT_FLOAT
        tensor_shape {
        }
        float_val: 0.20412415266
      }
    }
  }
}
node {
  name: "ENet/initial_block_1_conv/weights/Initializer/random_uniform/RandomUniform"
  op: "RandomUniform"
  input: "ENet/initial_block_1_conv/weights/Initializer/random_uniform/shape"
  attr {
    key: "T"
    value {
      type: DT_INT32
    }
  }
  attr {
    key: "_class"
    value {
      list {
        s: "loc:@ENet/initial_block_1_conv/weights"
      }
    }
  }
  attr {
    key: "dtype"
    value {
      type: DT_FLOAT
    }
  }
  attr {
    key: "seed"
    value {
      i: 0
    }
  }
  attr {
    key: "seed2"
    value {
      i: 0
    }
  }
}
node {
  name: "ENet/initial_block_1_conv/weights/Initializer/random_uniform/sub"
  op: "Sub"
  input: "ENet/initial_block_1_conv/weights/Initializer/random_uniform/max"
  input: "ENet/initial_block_1_conv/weights/Initializer/random_uniform/min"
  attr {
    key: "T"
    value {
      type: DT_FLOAT
    }
  }
  attr {
    key: "_class"
    value {
      list {
        s: "loc:@ENet/initial_block_1_conv/weights"
      }
    }
  }
}
node {
  name: "ENet/initial_block_1_conv/weights/Initializer/random_uniform/mul"
  op: "Mul"
  input: "ENet/initial_block_1_conv/weights/Initializer/random_uniform/RandomUniform"
  input: "ENet/initial_block_1_conv/weights/Initializer/random_uniform/sub"
  attr {
    key: "T"
    value {
      type: DT_FLOAT
    }
  }
  attr {
    key: "_class"
    value {
      list {
        s: "loc:@ENet/initial_block_1_conv/weights"
      }
    }
  }
}
node {
  name: "ENet/initial_block_1_conv/weights/Initializer/random_uniform"
  op: "Add"
  input: "ENet/initial_block_1_conv/weights/Initializer/random_uniform/mul"
  input: "ENet/initial_block_1_conv/weights/Initializer/random_uniform/min"
  attr {
    key: "T"
    value {
      type: DT_FLOAT
    }
  }
  attr {
    key: "_class"
    value {
      list {
        s: "loc:@ENet/initial_block_1_conv/weights"
      }
    }
  }
}
node {
  name: "ENet/initial_block_1_conv/weights"
  op: "VariableV2"
  attr {
    key: "_class"
    value {
      list {
        s: "loc:@ENet/initial_block_1_conv/weights"
      }
    }
  }
  attr {
    key: "container"
    value {
      s: ""
    }
  }
  attr {
    key: "dtype"
    value {
      type: DT_FLOAT
    }
  }
  attr {
    key: "shape"
    value {
      shape {
        dim {
          size: 3
        }
        dim {
          size: 3
        }
        dim {
          size: 3
        }
        dim {
          size: 13
        }
      }
    }
  }
  attr {
    key: "shared_name"
    value {
      s: ""
    }
  }
}
node {
  name: "ENet/initial_block_1_conv/weights/Assign"
  op: "Assign"
  input: "ENet/initial_block_1_conv/weights"
  input: "ENet/initial_block_1_conv/weights/Initializer/random_uniform"
  attr {
    key: "T"
    value {
      type: DT_FLOAT
    }
  }
  attr {
    key: "_class"
    value {
      list {
        s: "loc:@ENet/initial_block_1_conv/weights"
      }
    }
  }
  attr {
    key: "use_locking"
    value {
      b: true
    }
  }
  attr {
    key: "validate_shape"
    value {
      b: true
    }
  }
}
node {
  name: "ENet/initial_block_1_conv/weights/read"
  op: "Identity"
  input: "ENet/initial_block_1_conv/weights"
  attr {
    key: "T"
    value {
      type: DT_FLOAT
    }
  }
  attr {
    key: "_class"
    value {
      list {
        s: "loc:@ENet/initial_block_1_conv/weights"
      }
    }
  }
}
node {
  name: "ENet/initial_block_1_conv/kernel/Regularizer/l2_regularizer/scale"
  op: "Const"
  attr {
    key: "_class"
    value {
      list {
        s: "loc:@ENet/initial_block_1_conv/weights"
      }
    }
  }
  attr {
    key: "dtype"
    value {
      type: DT_FLOAT
    }
  }
  attr {
    key: "value"
    value {
      tensor {
        dtype: DT_FLOAT
        tensor_shape {
        }
        float_val: 0.000199999994948
      }
    }
  }
}
node {
  name: "ENet/initial_block_1_conv/kernel/Regularizer/l2_regularizer/L2Loss"
  op: "L2Loss"
  input: "ENet/initial_block_1_conv/weights/read"
  attr {
    key: "T"
    value {
      type: DT_FLOAT
    }
  }
  attr {
    key: "_class"
    value {
      list {
        s: "loc:@ENet/initial_block_1_conv/weights"
      }
    }
  }
}
node {
  name: "ENet/initial_block_1_conv/kernel/Regularizer/l2_regularizer"
  op: "Mul"
  input: "ENet/initial_block_1_conv/kernel/Regularizer/l2_regularizer/scale"
  input: "ENet/initial_block_1_conv/kernel/Regularizer/l2_regularizer/L2Loss"
  attr {
    key: "T"
    value {
      type: DT_FLOAT
    }
  }
  attr {
    key: "_class"
    value {
      list {
        s: "loc:@ENet/initial_block_1_conv/weights"
      }
    }
  }
}
node {
  name: "ENet/initial_block_1_conv/biases/Initializer/zeros"
  op: "Const"
  attr {
    key: "_class"
    value {
      list {
        s: "loc:@ENet/initial_block_1_conv/biases"
      }
    }
  }
  attr {
    key: "dtype"
    value {
      type: DT_FLOAT
    }
  }
  attr {
    key: "value"
    value {
      tensor {
        dtype: DT_FLOAT
        tensor_shape {
          dim {
            size: 13
          }
        }
        float_val: 0.0
      }
    }
  }
}
node {
  name: "ENet/initial_block_1_conv/biases"
  op: "VariableV2"
  attr {
    key: "_class"
    value {
      list {
        s: "loc:@ENet/initial_block_1_conv/biases"
      }
    }
  }
  attr {
    key: "container"
    value {
      s: ""
    }
  }
  attr {
    key: "dtype"
    value {
      type: DT_FLOAT
    }
  }
  attr {
    key: "shape"
    value {
      shape {
        dim {
          size: 13
        }
      }
    }
  }
  attr {
    key: "shared_name"
    value {
      s: ""
    }
  }
}
node {
  name: "ENet/initial_block_1_conv/biases/Assign"
  op: "Assign"
  input: "ENet/initial_block_1_conv/biases"
  input: "ENet/initial_block_1_conv/biases/Initializer/zeros"
  attr {
    key: "T"
    value {
      type: DT_FLOAT
    }
  }
  attr {
    key: "_class"
    value {
      list {
        s: "loc:@ENet/initial_block_1_conv/biases"
      }
    }
  }
  attr {
    key: "use_locking"
    value {
      b: true
    }
  }
  attr {
    key: "validate_shape"
    value {
      b: true
    }
  }
}
node {
  name: "ENet/initial_block_1_conv/biases/read"
  op: "Identity"
  input: "ENet/initial_block_1_conv/biases"
  attr {
    key: "T"
    value {
      type: DT_FLOAT
    }
  }
  attr {
    key: "_class"
    value {
      list {
        s: "loc:@ENet/initial_block_1_conv/biases"
      }
    }
  }
}
node {
  name: "ENet/initial_block_1_conv/bias/Regularizer/l2_regularizer/scale"
  op: "Const"
  attr {
    key: "_class"
    value {
      list {
        s: "loc:@ENet/initial_block_1_conv/biases"
      }
    }
  }
  attr {
    key: "dtype"
    value {
      type: DT_FLOAT
    }
  }
  attr {
    key: "value"
    value {
      tensor {
        dtype: DT_FLOAT
        tensor_shape {
        }
        float_val: 0.000199999994948
      }
    }
  }
}
node {
  name: "ENet/initial_block_1_conv/bias/Regularizer/l2_regularizer/L2Loss"
  op: "L2Loss"
  input: "ENet/initial_block_1_conv/biases/read"
  attr {
    key: "T"
    value {
      type: DT_FLOAT
    }
  }
  attr {
    key: "_class"
    value {
      list {
        s: "loc:@ENet/initial_block_1_conv/biases"
      }
    }
  }
}
node {
  name: "ENet/initial_block_1_conv/bias/Regularizer/l2_regularizer"
  op: "Mul"
  input: "ENet/initial_block_1_conv/bias/Regularizer/l2_regularizer/scale"
  input: "ENet/initial_block_1_conv/bias/Regularizer/l2_regularizer/L2Loss"
  attr {
    key: "T"
    value {
      type: DT_FLOAT
    }
  }
  attr {
    key: "_class"
    value {
      list {
        s: "loc:@ENet/initial_block_1_conv/biases"
      }
    }
  }
}
node {
  name: "ENet/initial_block_1_conv/dilation_rate"
  op: "Const"
  attr {
    key: "dtype"
    value {
      type: DT_INT32
    }
  }
  attr {
    key: "value"
    value {
      tensor {
        dtype: DT_INT32
        tensor_shape {
          dim {
            size: 2
          }
        }
        tensor_content: "\001\000\000\000\001\000\000\000"
      }
    }
  }
}
node {
  name: "ENet/initial_block_1_conv/Conv2D"
  op: "Conv2D"
  input: "input"
  input: "ENet/initial_block_1_conv/weights/read"
  attr {
    key: "T"
    value {
      type: DT_FLOAT
    }
  }
  attr {
    key: "data_format"
    value {
      s: "NHWC"
    }
  }
  attr {
    key: "dilations"
    value {
      list {
        i: 1
        i: 1
        i: 1
        i: 1
      }
    }
  }
  attr {
    key: "padding"
    value {
      s: "SAME"
    }
  }
  attr {
    key: "strides"
    value {
      list {
        i: 1
        i: 2
        i: 2
        i: 1
      }
    }
  }
  attr {
    key: "use_cudnn_on_gpu"
    value {
      b: true
    }
  }
}
node {
  name: "ENet/initial_block_1_conv/BiasAdd"
  op: "BiasAdd"
  input: "ENet/initial_block_1_conv/Conv2D"
  input: "ENet/initial_block_1_conv/biases/read"
  attr {
    key: "T"
    value {
      type: DT_FLOAT
    }
  }
  attr {
    key: "data_format"
    value {
      s: "NHWC"
    }
  }
}
node {
  name: "ENet/initial_block_1_batchnorm/Const"
  op: "Const"
  attr {
    key: "dtype"
    value {
      type: DT_FLOAT
    }
  }
  attr {
    key: "value"
    value {
      tensor {
        dtype: DT_FLOAT
        tensor_shape {
          dim {
            size: 13
          }
        }
        float_val: 1.0
      }
    }
  }
}
node {
  name: "ENet/initial_block_1_batchnorm/beta/Initializer/zeros"
  op: "Const"
  attr {
    key: "_class"
    value {
      list {
        s: "loc:@ENet/initial_block_1_batchnorm/beta"
      }
    }
  }
  attr {
    key: "dtype"
    value {
      type: DT_FLOAT
    }
  }
  attr {
    key: "value"
    value {
      tensor {
        dtype: DT_FLOAT
        tensor_shape {
          dim {
            size: 13
          }
        }
        float_val: 0.0
      }
    }
  }
}
node {
  name: "ENet/initial_block_1_batchnorm/beta"
  op: "VariableV2"
  attr {
    key: "_class"
    value {
      list {
        s: "loc:@ENet/initial_block_1_batchnorm/beta"
      }
    }
  }
  attr {
    key: "container"
    value {
      s: ""
    }
  }
  attr {
    key: "dtype"
    value {
      type: DT_FLOAT
    }
  }
  attr {
    key: "shape"
    value {
      shape {
        dim {
          size: 13
        }
      }
    }
  }
  attr {
    key: "shared_name"
    value {
      s: ""
    }
  }
}
node {
  name: "ENet/initial_block_1_batchnorm/beta/Assign"
  op: "Assign"
  input: "ENet/initial_block_1_batchnorm/beta"
  input: "ENet/initial_block_1_batchnorm/beta/Initializer/zeros"
  attr {
    key: "T"
    value {
      type: DT_FLOAT
    }
  }
  attr {
    key: "_class"
    value {
      list {
        s: "loc:@ENet/initial_block_1_batchnorm/beta"
      }
    }
  }
  attr {
    key: "use_locking"
    value {
      b: true
    }
  }
  attr {
    key: "validate_shape"
    value {
      b: true
    }
  }
}
node {
  name: "ENet/initial_block_1_batchnorm/beta/read"
  op: "Identity"
  input: "ENet/initial_block_1_batchnorm/beta"
  attr {
    key: "T"
    value {
      type: DT_FLOAT
    }
  }
  attr {
    key: "_class"
    value {
      list {
        s: "loc:@ENet/initial_block_1_batchnorm/beta"
      }
    }
  }
}
node {
  name: "ENet/initial_block_1_batchnorm/moving_mean/Initializer/zeros"
  op: "Const"
  attr {
    key: "_class"
    value {
      list {
        s: "loc:@ENet/initial_block_1_batchnorm/moving_mean"
      }
    }
  }
  attr {
    key: "dtype"
    value {
      type: DT_FLOAT
    }
  }
  attr {
    key: "value"
    value {
      tensor {
        dtype: DT_FLOAT
        tensor_shape {
          dim {
            size: 13
          }
        }
        float_val: 0.0
      }
    }
  }
}
node {
  name: "ENet/initial_block_1_batchnorm/moving_mean"
  op: "VariableV2"
  attr {
    key: "_class"
    value {
      list {
        s: "loc:@ENet/initial_block_1_batchnorm/moving_mean"
      }
    }
  }
  attr {
    key: "container"
    value {
      s: ""
    }
  }
  attr {
    key: "dtype"
    value {
      type: DT_FLOAT
    }
  }
  attr {
    key: "shape"
    value {
      shape {
        dim {
          size: 13
        }
      }
    }
  }
  attr {
    key: "shared_name"
    value {
      s: ""
    }
  }
}
node {
  name: "ENet/initial_block_1_batchnorm/moving_mean/Assign"
  op: "Assign"
  input: "ENet/initial_block_1_batchnorm/moving_mean"
  input: "ENet/initial_block_1_batchnorm/moving_mean/Initializer/zeros"
  attr {
    key: "T"
    value {
      type: DT_FLOAT
    }
  }
  attr {
    key: "_class"
    value {
      list {
        s: "loc:@ENet/initial_block_1_batchnorm/moving_mean"
      }
    }
  }
  attr {
    key: "use_locking"
    value {
      b: true
    }
  }
  attr {
    key: "validate_shape"
    value {
      b: true
    }
  }
}
node {
  name: "ENet/initial_block_1_batchnorm/moving_mean/read"
  op: "Identity"
  input: "ENet/initial_block_1_batchnorm/moving_mean"
  attr {
    key: "T"
    value {
      type: DT_FLOAT
    }
  }
  attr {
    key: "_class"
    value {
      list {
        s: "loc:@ENet/initial_block_1_batchnorm/moving_mean"
      }
    }
  }
}
node {
  name: "ENet/initial_block_1_batchnorm/moving_variance/Initializer/ones"
  op: "Const"
  attr {
    key: "_class"
    value {
      list {
        s: "loc:@ENet/initial_block_1_batchnorm/moving_variance"
      }
    }
  }
  attr {
    key: "dtype"
    value {
      type: DT_FLOAT
    }
  }
  attr {
    key: "value"
    value {
      tensor {
        dtype: DT_FLOAT
        tensor_shape {
          dim {
            size: 13
          }
        }
        float_val: 1.0
      }
    }
  }
}
node {
  name: "ENet/initial_block_1_batchnorm/moving_variance"
  op: "VariableV2"
  attr {
    key: "_class"
    value {
      list {
        s: "loc:@ENet/initial_block_1_batchnorm/moving_variance"
      }
    }
  }
  attr {
    key: "container"
    value {
      s: ""
    }
  }
  attr {
    key: "dtype"
    value {
      type: DT_FLOAT
    }
  }
  attr {
    key: "shape"
    value {
      shape {
        dim {
          size: 13
        }
      }
    }
  }
  attr {
    key: "shared_name"
    value {
      s: ""
    }
  }
}
node {
  name: "ENet/initial_block_1_batchnorm/moving_variance/Assign"
  op: "Assign"
  input: "ENet/initial_block_1_batchnorm/moving_variance"
  input: "ENet/initial_block_1_batchnorm/moving_variance/Initializer/ones"
  attr {
    key: "T"
    value {
      type: DT_FLOAT
    }
  }
  attr {
    key: "_class"
    value {
      list {
        s: "loc:@ENet/initial_block_1_batchnorm/moving_variance"
      }
    }
  }
  attr {
    key: "use_locking"
    value {
      b: true
    }
  }
  attr {
    key: "validate_shape"
    value {
      b: true
    }
  }
}
node {
  name: "ENet/initial_block_1_batchnorm/moving_variance/read"
  op: "Identity"
  input: "ENet/initial_block_1_batchnorm/moving_variance"
  attr {
    key: "T"
    value {
      type: DT_FLOAT
    }
  }
  attr {
    key: "_class"
    value {
      list {
        s: "loc:@ENet/initial_block_1_batchnorm/moving_variance"
      }
    }
  }
}
node {
  name: "ENet/initial_block_1_batchnorm/FusedBatchNorm"
  op: "FusedBatchNorm"
  input: "ENet/initial_block_1_conv/BiasAdd"
  input: "ENet/initial_block_1_batchnorm/Const"
  input: "ENet/initial_block_1_batchnorm/beta/read"
  input: "ENet/initial_block_1_batchnorm/moving_mean/read"
  input: "ENet/initial_block_1_batchnorm/moving_variance/read"
  attr {
    key: "T"
    value {
      type: DT_FLOAT
    }
  }
  attr {
    key: "data_format"
    value {
      s: "NHWC"
    }
  }
  attr {
    key: "epsilon"
    value {
      f: 0.0010000000475
    }
  }
  attr {
    key: "is_training"
    value {
      b: false
    }
  }
}
node {
  name: "ENet/initial_block_1_batchnorm/Const_1"
  op: "Const"
  attr {
    key: "dtype"
    value {
      type: DT_FLOAT
    }
  }
  attr {
    key: "value"
    value {
      tensor {
        dtype: DT_FLOAT
        tensor_shape {
        }
        float_val: 0.10000000149
      }
    }
  }
}
node {
  name: "ENet/initial_block_1_prelualpha/Initializer/Const"
  op: "Const"
  attr {
    key: "_class"
    value {
      list {
        s: "loc:@ENet/initial_block_1_prelualpha"
      }
    }
  }
  attr {
    key: "dtype"
    value {
      type: DT_FLOAT
    }
  }
  attr {
    key: "value"
    value {
      tensor {
        dtype: DT_FLOAT
        tensor_shape {
          dim {
            size: 13
          }
        }
        float_val: 0.0
      }
    }
  }
}
node {
  name: "ENet/initial_block_1_prelualpha"
  op: "VariableV2"
  attr {
    key: "_class"
    value {
      list {
        s: "loc:@ENet/initial_block_1_prelualpha"
      }
    }
  }
  attr {
    key: "container"
    value {
      s: ""
    }
  }
  attr {
    key: "dtype"
    value {
      type: DT_FLOAT
    }
  }
  attr {
    key: "shape"
    value {
      shape {
        dim {
          size: 13
        }
      }
    }
  }
  attr {
    key: "shared_name"
    value {
      s: ""
    }
  }
}
node {
  name: "ENet/initial_block_1_prelualpha/Assign"
  op: "Assign"
  input: "ENet/initial_block_1_prelualpha"
  input: "ENet/initial_block_1_prelualpha/Initializer/Const"
  attr {
    key: "T"
    value {
      type: DT_FLOAT
    }
  }
  attr {
    key: "_class"
    value {
      list {
        s: "loc:@ENet/initial_block_1_prelualpha"
      }
    }
  }
  attr {
    key: "use_locking"
    value {
      b: true
    }
  }
  attr {
    key: "validate_shape"
    value {
      b: true
    }
  }
}
node {
  name: "ENet/initial_block_1_prelualpha/read"
  op: "Identity"
  input: "ENet/initial_block_1_prelualpha"
  attr {
    key: "T"
    value {
      type: DT_FLOAT
    }
  }
  attr {
    key: "_class"
    value {
      list {
        s: "loc:@ENet/initial_block_1_prelualpha"
      }
    }
  }
}
node {
  name: "ENet/Relu"
  op: "Relu"
  input: "ENet/initial_block_1_batchnorm/FusedBatchNorm"
  attr {
    key: "T"
    value {
      type: DT_FLOAT
    }
  }
}
node {
  name: "ENet/Abs"
  op: "Abs"
  input: "ENet/initial_block_1_batchnorm/FusedBatchNorm"
  attr {
    key: "T"
    value {
      type: DT_FLOAT
    }
  }
}
node {
  name: "ENet/sub"
  op: "Sub"
  input: "ENet/initial_block_1_batchnorm/FusedBatchNorm"
  input: "ENet/Abs"
  attr {
    key: "T"
    value {
      type: DT_FLOAT
    }
  }
}
node {
  name: "ENet/mul"
  op: "Mul"
  input: "ENet/initial_block_1_prelualpha/read"
  input: "ENet/sub"
  attr {
    key: "T"
    value {
      type: DT_FLOAT
    }
  }
}
node {
  name: "ENet/mul_1/y"
  op: "Const"
  attr {
    key: "dtype"
    value {
      type: DT_FLOAT
    }
  }
  attr {
    key: "value"
    value {
      tensor {
        dtype: DT_FLOAT
        tensor_shape {
        }
        float_val: 0.5
      }
    }
  }
}
node {
  name: "ENet/mul_1"
  op: "Mul"
  input: "ENet/mul"
  input: "ENet/mul_1/y"
  attr {
    key: "T"
    value {
      type: DT_FLOAT
    }
  }
}
node {
  name: "ENet/add"
  op: "Add"
  input: "ENet/Relu"
  input: "ENet/mul_1"
  attr {
    key: "T"
    value {
      type: DT_FLOAT
    }
  }
}
node {
  name: "ENet/initial_block_1_max_pool/MaxPool"
  op: "MaxPool"
  input: "input"
  attr {
    key: "T"
    value {
      type: DT_FLOAT
    }
  }
  attr {
    key: "data_format"
    value {
      s: "NHWC"
    }
  }
  attr {
    key: "ksize"
    value {
      list {
        i: 1
        i: 2
        i: 2
        i: 1
      }
    }
  }
  attr {
    key: "padding"
    value {
      s: "VALID"
    }
  }
  attr {
    key: "strides"
    value {
      list {
        i: 1
        i: 2
        i: 2
        i: 1
      }
    }
  }
}
node {
  name: "ENet/initial_block_1_concat/axis"
  op: "Const"
  attr {
    key: "dtype"
    value {
      type: DT_INT32
    }
  }
  attr {
    key: "value"
    value {
      tensor {
        dtype: DT_INT32
        tensor_shape {
        }
        int_val: 3
      }
    }
  }
}
node {
  name: "ENet/initial_block_1_concat"
  op: "ConcatV2"
  input: "ENet/add"
  input: "ENet/initial_block_1_max_pool/MaxPool"
  input: "ENet/initial_block_1_concat/axis"
  attr {
    key: "N"
    value {
      i: 2
    }
  }
  attr {
    key: "T"
    value {
      type: DT_FLOAT
    }
  }
  attr {
    key: "Tidx"
    value {
      type: DT_INT32
    }
  }
}
node {
  name: "ENet/bottleneck1_0_main_max_pool"
  op: "MaxPoolWithArgmax"
  input: "ENet/initial_block_1_concat"
  attr {
    key: "T"
    value {
      type: DT_FLOAT
    }
  }
  attr {
    key: "Targmax"
    value {
      type: DT_INT64
    }
  }
  attr {
    key: "ksize"
    value {
      list {
        i: 1
        i: 2
        i: 2
        i: 1
      }
    }
  }
  attr {
    key: "padding"
    value {
      s: "SAME"
    }
  }
  attr {
    key: "strides"
    value {
      list {
        i: 1
        i: 2
        i: 2
        i: 1
      }
    }
  }
}
node {
  name: "ENet/Const"
  op: "Const"
  attr {
    key: "dtype"
    value {
      type: DT_INT32
    }
  }
  attr {
    key: "value"
    value {
      tensor {
        dtype: DT_INT32
        tensor_shape {
          dim {
            size: 4
          }
          dim {
            size: 2
          }
        }
        tensor_content: "…"
      }
    }
  }
}
node {
  name: "ENet/bottleneck1_0_main_padding"
  op: "Pad"
  input: "ENet/bottleneck1_0_main_max_pool"
  input: "ENet/Const"
  attr {
    key: "T"
    value {
      type: DT_FLOAT
    }
  }
  attr {
    key: "Tpaddings"
    value {
      type: DT_INT32
    }
  }
}
node {
  name: "ENet/bottleneck1_0_conv1/weights/Initializer/random_uniform/shape"
  op: "Const"
  attr {
    key: "_class"
    value {
      list {
        s: "loc:@ENet/bottleneck1_0_conv1/weights"
      }
    }
  }
  attr {
    key: "dtype"
    value {
      type: DT_INT32
    }
  }
  attr {
    key: "value"
    value {
      tensor {
        dtype: DT_INT32
        tensor_shape {
          dim {
            size: 4
          }
        }
        tensor_content: "\002\000\000\000\002\000\000\000\020\000\000\000\004\000\000\000"
      }
    }
  }
}
node {
  name: "ENet/bottleneck1_0_conv1/weights/Initializer/random_uniform/min"
  op: "Const"
  attr {
    key: "_class"
    value {
      list {
        s: "loc:@ENet/bottleneck1_0_conv1/weights"
      }
    }
  }
  attr {
    key: "dtype"
    value {
      type: DT_FLOAT
    }
  }
  attr {
    key: "value"
    value {
      tensor {
        dtype: DT_FLOAT
        tensor_shape {
        }
        float_val: -0.273861289024
      }
    }
  }
}
node {
  name: "ENet/bottleneck1_0_conv1/weights/Initializer/random_uniform/max"
  op: "Const"
  attr {
    key: "_class"
    value {
      list {
        s: "loc:@ENet/bottleneck1_0_conv1/weights"
      }
    }
  }
  attr {
    key: "dtype"
    value {
      type: DT_FLOAT
    }
  }
  attr {
    key: "value"
    value {
      tensor {
        dtype: DT_FLOAT
        tensor_shape {
        }
        float_val: 0.273861289024
      }
    }
  }
}
node {
  name: "ENet/bottleneck1_0_conv1/weights/Initializer/random_uniform/RandomUniform"
  op: "RandomUniform"
  input: "ENet/bottleneck1_0_conv1/weights/Initializer/random_uniform/shape"
  attr {
    key: "T"
    value {
      type: DT_INT32
    }
  }
  attr {
    key: "_class"
    value {
      list {
        s: "loc:@ENet/bottleneck1_0_conv1/weights"
      }
    }
  }
  attr {
    key: "dtype"
    value {
      type: DT_FLOAT
    }
  }
  attr {
    key: "seed"
    value {
      i: 0
    }
  }
  attr {
    key: "seed2"
    value {
      i: 0
    }
  }
}
node {
  name: "ENet/bottleneck1_0_conv1/weights/Initializer/random_uniform/sub"
  op: "Sub"
  input: "ENet/bottleneck1_0_conv1/weights/Initializer/random_uniform/max"
  input: "ENet/bottleneck1_0_conv1/weights/Initializer/random_uniform/min"
  attr {
    key: "T"
    value {
      type: DT_FLOAT
    }
  }
  attr {
    key: "_class"
    value {
      list {
        s: "loc:@ENet/bottleneck1_0_conv1/weights"
      }
    }
  }
}
node {
  name: "ENet/bottleneck1_0_conv1/weights/Initializer/random_uniform/mul"
  op: "Mul"
  input: "ENet/bottleneck1_0_conv1/weights/Initializer/random_uniform/RandomUniform"
  input: "ENet/bottleneck1_0_conv1/weights/Initializer/random_uniform/sub"
  attr {
    key: "T"
    value {
      type: DT_FLOAT
    }
  }
  attr {
    key: "_class"
    value {
      list {
        s: "loc:@ENet/bottleneck1_0_conv1/weights"
      }
    }
  }
}
node {
  name: "ENet/bottleneck1_0_conv1/weights/Initializer/random_uniform"
  op: "Add"
  input: "ENet/bottleneck1_0_conv1/weights/Initializer/random_uniform/mul"
  input: "ENet/bottleneck1_0_conv1/weights/Initializer/random_uniform/min"
  attr {
    key: "T"
    value {
      type: DT_FLOAT
    }
  }
  attr {
    key: "_class"
    value {
      list {
        s: "loc:@ENet/bottleneck1_0_conv1/weights"
      }
    }
  }
}
node {
  name: "ENet/bottleneck1_0_conv1/weights"
  op: "VariableV2"
  attr {
    key: "_class"
    value {
      list {
        s: "loc:@ENet/bottleneck1_0_conv1/weights"
      }
    }
  }
  attr {
    key: "container"
    value {
      s: ""
    }
  }
  attr {
    key: "dtype"
    value {
      type: DT_FLOAT
    }
  }
  attr {
    key: "shape"
    value {
      shape {
        dim {
          size: 2
        }
        dim {
          size: 2
        }
        dim {
          size: 16
        }
        dim {
          size: 4
        }
      }
    }
  }
  attr {
    key: "shared_name"
    value {
      s: ""
    }
  }
}
node {
  name: "ENet/bottleneck1_0_conv1/weights/Assign"
  op: "Assign"
  input: "ENet/bottleneck1_0_conv1/weights"
  input: "ENet/bottleneck1_0_conv1/weights/Initializer/random_uniform"
  attr {
    key: "T"
    value {
      type: DT_FLOAT
    }
  }
  attr {
    key: "_class"
    value {
      list {
        s: "loc:@ENet/bottleneck1_0_conv1/weights"
      }
    }
  }
  attr {
    key: "use_locking"
    value {
      b: true
    }
  }
  attr {
    key: "validate_shape"
    value {
      b: true
    }
  }
}
node {
  name: "ENet/bottleneck1_0_conv1/weights/read"
  op: "Identity"
  input: "ENet/bottleneck1_0_conv1/weights"
  attr {
    key: "T"
    value {
      type: DT_FLOAT
    }
  }
  attr {
    key: "_class"
    value {
      list {
        s: "loc:@ENet/bottleneck1_0_conv1/weights"
      }
    }
  }
}
node {
  name: "ENet/bottleneck1_0_conv1/kernel/Regularizer/l2_regularizer/scale"
  op: "Const"
  attr {
    key: "_class"
    value {
      list {
        s: "loc:@ENet/bottleneck1_0_conv1/weights"
      }
    }
  }
  attr {
    key: "dtype"
    value {
      type: DT_FLOAT
    }
  }
  attr {
    key: "value"
    value {
      tensor {
        dtype: DT_FLOAT
        tensor_shape {
        }
        float_val: 0.000199999994948
      }
    }
  }
}
node {
  name: "ENet/bottleneck1_0_conv1/kernel/Regularizer/l2_regularizer/L2Loss"
  op: "L2Loss"
  input: "ENet/bottleneck1_0_conv1/weights/read"
  attr {
    key: "T"
    value {
      type: DT_FLOAT
    }
  }
  attr {
    key: "_class"
    value {
      list {
        s: "loc:@ENet/bottleneck1_0_conv1/weights"
      }
    }
  }
}
node {
  name: "ENet/bottleneck1_0_conv1/kernel/Regularizer/l2_regularizer"
  op: "Mul"
  input: "ENet/bottleneck1_0_conv1/kernel/Regularizer/l2_regularizer/scale"
  input: "ENet/bottleneck1_0_conv1/kernel/Regularizer/l2_regularizer/L2Loss"
  attr {
    key: "T"
    value {
      type: DT_FLOAT
    }
  }
  attr {
    key: "_class"
    value {
      list {
        s: "loc:@ENet/bottleneck1_0_conv1/weights"
      }
    }
  }
}
node {
  name: "ENet/bottleneck1_0_conv1/biases/Initializer/zeros"
  op: "Const"
  attr {
    key: "_class"
    value {
      list {
        s: "loc:@ENet/bottleneck1_0_conv1/biases"
      }
    }
  }
  attr {
    key: "dtype"
    value {
      type: DT_FLOAT
    }
  }
  attr {
    key: "value"
    value {
      tensor {
        dtype: DT_FLOAT
        tensor_shape {
          dim {
            size: 4
          }
        }
        float_val: 0.0
      }
    }
  }
}
node {
  name: "ENet/bottleneck1_0_conv1/biases"
  op: "VariableV2"
  attr {
    key: "_class"
    value {
      list {
        s: "loc:@ENet/bottleneck1_0_conv1/biases"
      }
    }
  }
  attr {
    key: "container"
    value {
      s: ""
    }
  }
  attr {
    key: "dtype"
    value {
      type: DT_FLOAT
    }
  }
  attr {
    key: "shape"
    value {
      shape {
        dim {
          size: 4
        }
      }
    }
  }
  attr {
    key: "shared_name"
    value {
      s: ""
    }
  }
}
node {
  name: "ENet/bottleneck1_0_conv1/biases/Assign"
  op: "Assign"
  input: "ENet/bottleneck1_0_conv1/biases"
  input: "ENet/bottleneck1_0_conv1/biases/Initializer/zeros"
  attr {
    key: "T"
    value {
      type: DT_FLOAT
    }
  }
  attr {
    key: "_class"
    value {
      list {
        s: "loc:@ENet/bottleneck1_0_conv1/biases"
      }
    }
  }
  attr {
    key: "use_locking"
    value {
      b: true
    }
  }
  attr {
    key: "validate_shape"
    value {
      b: true
    }
  }
}
node {
  name: "ENet/bottleneck1_0_conv1/biases/read"
  op: "Identity"
  input: "ENet/bottleneck1_0_conv1/biases"
  attr {
    key: "T"
    value {
      type: DT_FLOAT
    }
  }
  attr {
    key: "_class"
    value {
      list {
        s: "loc:@ENet/bottleneck1_0_conv1/biases"
      }
    }
  }
}
node {
  name: "ENet/bottleneck1_0_conv1/bias/Regularizer/l2_regularizer/scale"
  op: "Const"
  attr {
    key: "_class"
    value {
      list {
        s: "loc:@ENet/bottleneck1_0_conv1/biases"
      }
    }
  }
  attr {
    key: "dtype"
    value {
      type: DT_FLOAT
    }
  }
  attr {
    key: "value"
    value {
      tensor {
        dtype: DT_FLOAT
        tensor_shape {
        }
        float_val: 0.000199999994948
      }
    }
  }
}
node {
  name: "ENet/bottleneck1_0_conv1/bias/Regularizer/l2_regularizer/L2Loss"
  op: "L2Loss"
  input: "ENet/bottleneck1_0_conv1/biases/read"
  attr {
    key: "T"
    value {
      type: DT_FLOAT
    }
  }
  attr {
    key: "_class"
    value {
      list {
        s: "loc:@ENet/bottleneck1_0_conv1/biases"
      }
    }
  }
}
node {
  name: "ENet/bottleneck1_0_conv1/bias/Regularizer/l2_regularizer"
  op: "Mul"
  input: "ENet/bottleneck1_0_conv1/bias/Regularizer/l2_regularizer/scale"
  input: "ENet/bottleneck1_0_conv1/bias/Regularizer/l2_regularizer/L2Loss"
  attr {
    key: "T"
    value {
      type: DT_FLOAT
    }
  }
  attr {
    key: "_class"
    value {
      list {
        s: "loc:@ENet/bottleneck1_0_conv1/biases"
      }
    }
  }
}
node {
  name: "ENet/bottleneck1_0_conv1/dilation_rate"
  op: "Const"
  attr {
    key: "dtype"
    value {
      type: DT_INT32
    }
  }
  attr {
    key: "value"
    value {
      tensor {
        dtype: DT_INT32
        tensor_shape {
          dim {
            size: 2
          }
        }
        tensor_content: "\001\000\000\000\001\000\000\000"
      }
    }
  }
}
node {
  name: "ENet/bottleneck1_0_conv1/Conv2D"
  op: "Conv2D"
  input: "ENet/initial_block_1_concat"
  input: "ENet/bottleneck1_0_conv1/weights/read"
  attr {
    key: "T"
    value {
      type: DT_FLOAT
    }
  }
  attr {
    key: "data_format"
    value {
      s: "NHWC"
    }
  }
  attr {
    key: "dilations"
    value {
      list {
        i: 1
        i: 1
        i: 1
        i: 1
      }
    }
  }
  attr {
    key: "padding"
    value {
      s: "SAME"
    }
  }
  attr {
    key: "strides"
    value {
      list {
        i: 1
        i: 2
        i: 2
        i: 1
      }
    }
  }
  attr {
    key: "use_cudnn_on_gpu"
    value {
      b: true
    }
  }
}
node {
  name: "ENet/bottleneck1_0_conv1/BiasAdd"
  op: "BiasAdd"
  input: "ENet/bottleneck1_0_conv1/Conv2D"
  input: "ENet/bottleneck1_0_conv1/biases/read"
  attr {
    key: "T"
    value {
      type: DT_FLOAT
    }
  }
  attr {
    key: "data_format"
    value {
      s: "NHWC"
    }
  }
}
node {
  name: "ENet/bottleneck1_0_batch_norm1/Const"
  op: "Const"
  attr {
    key: "dtype"
    value {
      type: DT_FLOAT
    }
  }
  attr {
    key: "value"
    value {
      tensor {
        dtype: DT_FLOAT
        tensor_shape {
          dim {
            size: 4
          }
        }
        float_val: 1.0
      }
    }
  }
}
node {
  name: "ENet/bottleneck1_0_batch_norm1/beta/Initializer/zeros"
  op: "Const"
  attr {
    key: "_class"
    value {
      list {
        s: "loc:@ENet/bottleneck1_0_batch_norm1/beta"
      }
    }
  }
  attr {
    key: "dtype"
    value {
      type: DT_FLOAT
    }
  }
  attr {
    key: "value"
    value {
      tensor {
        dtype: DT_FLOAT
        tensor_shape {
          dim {
            size: 4
          }
        }
        float_val: 0.0
      }
    }
  }
}
node {
  name: "ENet/bottleneck1_0_batch_norm1/beta"
  op: "VariableV2"
  attr {
    key: "_class"
    value {
      list {
        s: "loc:@ENet/bottleneck1_0_batch_norm1/beta"
      }
    }
  }
  attr {
    key: "container"
    value {
      s: ""
    }
  }
  attr {
    key: "dtype"
    value {
      type: DT_FLOAT
    }
  }
  attr {
    key: "shape"
    value {
      shape {
        dim {
          size: 4
        }
      }
    }
  }
  attr {
    key: "shared_name"
    value {
      s: ""
    }
  }
}
node {
  name: "ENet/bottleneck1_0_batch_norm1/beta/Assign"
  op: "Assign"
  input: "ENet/bottleneck1_0_batch_norm1/beta"
  input: "ENet/bottleneck1_0_batch_norm1/beta/Initializer/zeros"
  attr {
    key: "T"
    value {
      type: DT_FLOAT
    }
  }
  attr {
    key: "_class"
    value {
      list {
        s: "loc:@ENet/bottleneck1_0_batch_norm1/beta"
      }
    }
  }
  attr {
    key: "use_locking"
    value {
      b: true
    }
  }
  attr {
    key: "validate_shape"
    value {
      b: true
    }
  }
}
node {
  name: "ENet/bottleneck1_0_batch_norm1/beta/read"
  op: "Identity"
  input: "ENet/bottleneck1_0_batch_norm1/beta"
  attr {
    key: "T"
    value {
      type: DT_FLOAT
    }
  }
  attr {
    key: "_class"
    value {
      list {
        s: "loc:@ENet/bottleneck1_0_batch_norm1/beta"
      }
    }
  }
}
node {
  name: "ENet/bottleneck1_0_batch_norm1/moving_mean/Initializer/zeros"
  op: "Const"
  attr {
    key: "_class"
    value {
      list {
        s: "loc:@ENet/bottleneck1_0_batch_norm1/moving_mean"
      }
    }
  }
  attr {
    key: "dtype"
    value {
      type: DT_FLOAT
    }
  }
  attr {
    key: "value"
    value {
      tensor {
        dtype: DT_FLOAT
        tensor_shape {
          dim {
            size: 4
          }
        }
        float_val: 0.0
      }
    }
  }
}
node {
  name: "ENet/bottleneck1_0_batch_norm1/moving_mean"
  op: "VariableV2"
  attr {
    key: "_class"
    value {
      list {
        s: "loc:@ENet/bottleneck1_0_batch_norm1/moving_mean"
      }
    }
  }
  attr {
    key: "container"
    value {
      s: ""
    }
  }
  attr {
    key: "dtype"
    value {
      type: DT_FLOAT
    }
  }
  attr {
    key: "shape"
    value {
      shape {
        dim {
          size: 4
        }
      }
    }
  }
  attr {
    key: "shared_name"
    value {
      s: ""
    }
  }
}
node {
  name: "ENet/bottleneck1_0_batch_norm1/moving_mean/Assign"
  op: "Assign"
  input: "ENet/bottleneck1_0_batch_norm1/moving_mean"
  input: "ENet/bottleneck1_0_batch_norm1/moving_mean/Initializer/zeros"
  attr {
    key: "T"
    value {
      type: DT_FLOAT
    }
  }
  attr {
    key: "_class"
    value {
      list {
        s: "loc:@ENet/bottleneck1_0_batch_norm1/moving_mean"
      }
    }
  }
  attr {
    key: "use_locking"
    value {
      b: true
    }
  }
  attr {
    key: "validate_shape"
    value {
      b: true
    }
  }
}
node {
  name: "ENet/bottleneck1_0_batch_norm1/moving_mean/read"
  op: "Identity"
  input: "ENet/bottleneck1_0_batch_norm1/moving_mean"
  attr {
    key: "T"
    value {
      type: DT_FLOAT
    }
  }
  attr {
    key: "_class"
    value {
      list {
        s: "loc:@ENet/bottleneck1_0_batch_norm1/moving_mean"
      }
    }
  }
}
node {
  name: "ENet/bottleneck1_0_batch_norm1/moving_variance/Initializer/ones"
  op: "Const"
  attr {
    key: "_class"
    value {
      list {
        s: "loc:@ENet/bottleneck1_0_batch_norm1/moving_variance"
      }
    }
  }
  attr {
    key: "dtype"
    value {
      type: DT_FLOAT
    }
  }
  attr {
    key: "value"
    value {
      tensor {
        dtype: DT_FLOAT
        tensor_shape {
          dim {
            size: 4
          }
        }
        float_val: 1.0
      }
    }
  }
}
node {
  name: "ENet/bottleneck1_0_batch_norm1/moving_variance"
  op: "VariableV2"
  attr {
    key: "_class"
    value {
      list {
        s: "loc:@ENet/bottleneck1_0_batch_norm1/moving_variance"
      }
    }
  }
  attr {
    key: "container"
    value {
      s: ""
    }
  }
  attr {
    key: "dtype"
    value {
      type: DT_FLOAT
    }
  }
  attr {
    key: "shape"
    value {
      shape {
        dim {
          size: 4
        }
      }
    }
  }
  attr {
    key: "shared_name"
    value {
      s: ""
    }
  }
}
node {
  name: "ENet/bottleneck1_0_batch_norm1/moving_variance/Assign"
  op: "Assign"
  input: "ENet/bottleneck1_0_batch_norm1/moving_variance"
  input: "ENet/bottleneck1_0_batch_norm1/moving_variance/Initializer/ones"
  attr {
    key: "T"
    value {
      type: DT_FLOAT
    }
  }
  attr {
    key: "_class"
    value {
      list {
        s: "loc:@ENet/bottleneck1_0_batch_norm1/moving_variance"
      }
    }
  }
  attr {
    key: "use_locking"
    value {
      b: true
    }
  }
  attr {
    key: "validate_shape"
    value {
      b: true
    }
  }
}
node {
  name: "ENet/bottleneck1_0_batch_norm1/moving_variance/read"
  op: "Identity"
  input: "ENet/bottleneck1_0_batch_norm1/moving_variance"
  attr {
    key: "T"
    value {
      type: DT_FLOAT
    }
  }
  attr {
    key: "_class"
    value {
      list {
        s: "loc:@ENet/bottleneck1_0_batch_norm1/moving_variance"
      }
    }
  }
}
node {
  name: "ENet/bottleneck1_0_batch_norm1/FusedBatchNorm"
  op: "FusedBatchNorm"
  input: "ENet/bottleneck1_0_conv1/BiasAdd"
  input: "ENet/bottleneck1_0_batch_norm1/Const"
  input: "ENet/bottleneck1_0_batch_norm1/beta/read"
  input: "ENet/bottleneck1_0_batch_norm1/moving_mean/read"
  input: "ENet/bottleneck1_0_batch_norm1/moving_variance/read"
  attr {
    key: "T"
    value {
      type: DT_FLOAT
    }
  }
  attr {
    key: "data_format"
    value {
      s: "NHWC"
    }
  }
  attr {
    key: "epsilon"
    value {
      f: 0.0010000000475
    }
  }
  attr {
    key: "is_training"
    value {
      b: false
    }
  }
}
node {
  name: "ENet/bottleneck1_0_batch_norm1/Const_1"
  op: "Const"
  attr {
    key: "dtype"
    value {
      type: DT_FLOAT
    }
  }
  attr {
    key: "value"
    value {
      tensor {
        dtype: DT_FLOAT
        tensor_shape {
        }
        float_val: 0.10000000149
      }
    }
  }
}
node {
  name: "ENet/bottleneck1_0_prelu1alpha/Initializer/Const"
  op: "Const"
  attr {
    key: "_class"
    value {
      list {
        s: "loc:@ENet/bottleneck1_0_prelu1alpha"
      }
    }
  }
  attr {
    key: "dtype"
    value {
      type: DT_FLOAT
    }
  }
  attr {
    key: "value"
    value {
      tensor {
        dtype: DT_FLOAT
        tensor_shape {
          dim {
            size: 4
          }
        }
        float_val: 0.0
      }
    }
  }
}
node {
  name: "ENet/bottleneck1_0_prelu1alpha"
  op: "VariableV2"
  attr {
    key: "_class"
    value {
      list {
        s: "loc:@ENet/bottleneck1_0_prelu1alpha"
      }
    }
  }
  attr {
    key: "container"
    value {
      s: ""
    }
  }
  attr {
    key: "dtype"
    value {
      type: DT_FLOAT
    }
  }
  attr {
    key: "shape"
    value {
      shape {
        dim {
          size: 4
        }
      }
    }
  }
  attr {
    key: "shared_name"
    value {
      s: ""
    }
  }
}
node {
  name: "ENet/bottleneck1_0_prelu1alpha/Assign"
  op: "Assign"
  input: "ENet/bottleneck1_0_prelu1alpha"
  input: "ENet/bottleneck1_0_prelu1alpha/Initializer/Const"
  attr {
    key: "T"
    value {
      type: DT_FLOAT
    }
  }
  attr {
    key: "_class"
    value {
      list {
        s: "loc:@ENet/bottleneck1_0_prelu1alpha"
      }
    }
  }
  attr {
    key: "use_locking"
    value {
      b: true
    }
  }
  attr {
    key: "validate_shape"
    value {
      b: true
    }
  }
}
node {
  name: "ENet/bottleneck1_0_prelu1alpha/read"
  op: "Identity"
  input: "ENet/bottleneck1_0_prelu1alpha"
  attr {
    key: "T"
    value {
      type: DT_FLOAT
    }
  }
  attr {
    key: "_class"
    value {
      list {
        s: "loc:@ENet/bottleneck1_0_prelu1alpha"
      }
    }
  }
}
node {
  name: "ENet/Relu_1"
  op: "Relu"
  input: "ENet/bottleneck1_0_batch_norm1/FusedBatchNorm"
  attr {
    key: "T"
    value {
      type: DT_FLOAT
    }
  }
}
node {
  name: "ENet/Abs_1"
  op: "Abs"
  input: "ENet/bottleneck1_0_batch_norm1/FusedBatchNorm"
  attr {
    key: "T"
    value {
      type: DT_FLOAT
    }
  }
}
node {
  name: "ENet/sub_1"
  op: "Sub"
  input: "ENet/bottleneck1_0_batch_norm1/FusedBatchNorm"
  input: "ENet/Abs_1"
  attr {
    key: "T"
    value {
      type: DT_FLOAT
    }
  }
}
node {
  name: "ENet/mul_2"
  op: "Mul"
  input: "ENet/bottleneck1_0_prelu1alpha/read"
  input: "ENet/sub_1"
  attr {
    key: "T"
    value {
      type: DT_FLOAT
    }
  }
}
node {
  name: "ENet/mul_3/y"
  op: "Const"
  attr {
    key: "dtype"
    value {
      type: DT_FLOAT
    }
  }
  attr {
    key: "value"
    value {
      tensor {
        dtype: DT_FLOAT
        tensor_shape {
        }
        float_val: 0.5
      }
    }
  }
}
node {
  name: "ENet/mul_3"
  op: "Mul"
  input: "ENet/mul_2"
  input: "ENet/mul_3/y"
  attr {
    key: "T"
    value {
      type: DT_FLOAT
    }
  }
}
node {
  name: "ENet/add_1"
  op: "Add"
  input: "ENet/Relu_1"
  input: "ENet/mul_3"
  attr {
    key: "T"
    value {
      type: DT_FLOAT
    }
  }
}
node {
  name: "ENet/bottleneck1_0_conv2/weights/Initializer/random_uniform/shape"
  op: "Const"
  attr {
    key: "_class"
    value {
      list {
        s: "loc:@ENet/bottleneck1_0_conv2/weights"
      }
    }
  }
  attr {
    key: "dtype"
    value {
      type: DT_INT32
    }
  }
  attr {
    key: "value"
    value {
      tensor {
        dtype: DT_INT32
        tensor_shape {
          dim {
            size: 4
          }
        }
        tensor_content: "\003\000\000\000\003\000\000\000\004\000\000\000\004\000\000\000"
      }
    }
  }
}
node {
  name: "ENet/bottleneck1_0_conv2/weights/Initializer/random_uniform/min"
  op: "Const"
  attr {
    key: "_class"
    value {
      list {
        s: "loc:@ENet/bottleneck1_0_conv2/weights"
      }
    }
  }
  attr {
    key: "dtype"
    value {
      type: DT_FLOAT
    }
  }
  attr {
    key: "value"
    value {
      tensor {
        dtype: DT_FLOAT
        tensor_shape {
        }
        float_val: -0.288675129414
      }
    }
  }
}
node {
  name: "ENet/bottleneck1_0_conv2/weights/Initializer/random_uniform/max"
  op: "Const"
  attr {
    key: "_class"
    value {
      list {
        s: "loc:@ENet/bottleneck1_0_conv2/weights"
      }
    }
  }
  attr {
    key: "dtype"
    value {
      type: DT_FLOAT
    }
  }
  attr {
    key: "value"
    value {
      tensor {
        dtype: DT_FLOAT
        tensor_shape {
        }
        float_val: 0.288675129414
      }
    }
  }
}
node {
  name: "ENet/bottleneck1_0_conv2/weights/Initializer/random_uniform/RandomUniform"
  op: "RandomUniform"
  input: "ENet/bottleneck1_0_conv2/weights/Initializer/random_uniform/shape"
  attr {
    key: "T"
    value {
      type: DT_INT32
    }
  }
  attr {
    key: "_class"
    value {
      list {
        s: "loc:@ENet/bottleneck1_0_conv2/weights"
      }
    }
  }
  attr {
    key: "dtype"
    value {
      type: DT_FLOAT
    }
  }
  attr {
    key: "seed"
    value {
      i: 0
    }
  }
  attr {
    key: "seed2"
    value {
      i: 0
    }
  }
}
node {
  name: "ENet/bottleneck1_0_conv2/weights/Initializer/random_uniform/sub"
  op: "Sub"
  input: "ENet/bottleneck1_0_conv2/weights/Initializer/random_uniform/max"
  input: "ENet/bottleneck1_0_conv2/weights/Initializer/random_uniform/min"
  attr {
    key: "T"
    value {
      type: DT_FLOAT
    }
  }
  attr {
    key: "_class"
    value {
      list {
        s: "loc:@ENet/bottleneck1_0_conv2/weights"
      }
    }
  }
}
node {
  name: "ENet/bottleneck1_0_conv2/weights/Initializer/random_uniform/mul"
  op: "Mul"
  input: "ENet/bottleneck1_0_conv2/weights/Initializer/random_uniform/RandomUniform"
  input: "ENet/bottleneck1_0_conv2/weights/Initializer/random_uniform/sub"
  attr {
    key: "T"
    value {
      type: DT_FLOAT
    }
  }
  attr {
    key: "_class"
    value {
      list {
        s: "loc:@ENet/bottleneck1_0_conv2/weights"
      }
    }
  }
}
node {
  name: "ENet/bottleneck1_0_conv2/weights/Initializer/random_uniform"
  op: "Add"
  input: "ENet/bottleneck1_0_conv2/weights/Initializer/random_uniform/mul"
  input: "ENet/bottleneck1_0_conv2/weights/Initializer/random_uniform/min"
  attr {
    key: "T"
    value {
      type: DT_FLOAT
    }
  }
  attr {
    key: "_class"
    value {
      list {
        s: "loc:@ENet/bottleneck1_0_conv2/weights"
      }
    }
  }
}
node {
  name: "ENet/bottleneck1_0_conv2/weights"
  op: "VariableV2"
  attr {
    key: "_class"
    value {
      list {
        s: "loc:@ENet/bottleneck1_0_conv2/weights"
      }
    }
  }
  attr {
    key: "container"
    value {
      s: ""
    }
  }
  attr {
    key: "dtype"
    value {
      type: DT_FLOAT
    }
  }
  attr {
    key: "shape"
    value {
      shape {
        dim {
          size: 3
        }
        dim {
          size: 3
        }
        dim {
          size: 4
        }
        dim {
          size: 4
        }
      }
    }
  }
  attr {
    key: "shared_name"
    value {
      s: ""
    }
  }
}
node {
  name: "ENet/bottleneck1_0_conv2/weights/Assign"
  op: "Assign"
  input: "ENet/bottleneck1_0_conv2/weights"
  input: "ENet/bottleneck1_0_conv2/weights/Initializer/random_uniform"
  attr {
    key: "T"
    value {
      type: DT_FLOAT
    }
  }
  attr {
    key: "_class"
    value {
      list {
        s: "loc:@ENet/bottleneck1_0_conv2/weights"
      }
    }
  }
  attr {
    key: "use_locking"
    value {
      b: true
    }
  }
  attr {
    key: "validate_shape"
    value {
      b: true
    }
  }
}
node {
  name: "ENet/bottleneck1_0_conv2/weights/read"
  op: "Identity"
  input: "ENet/bottleneck1_0_conv2/weights"
  attr {
    key: "T"
    value {
      type: DT_FLOAT
    }
  }
  attr {
    key: "_class"
    value {
      list {
        s: "loc:@ENet/bottleneck1_0_conv2/weights"
      }
    }
  }
}
node {
  name: "ENet/bottleneck1_0_conv2/kernel/Regularizer/l2_regularizer/scale"
  op: "Const"
  attr {
    key: "_class"
    value {
      list {
        s: "loc:@ENet/bottleneck1_0_conv2/weights"
      }
    }
  }
  attr {
    key: "dtype"
    value {
      type: DT_FLOAT
    }
  }
  attr {
    key: "value"
    value {
      tensor {
        dtype: DT_FLOAT
        tensor_shape {
        }
        float_val: 0.000199999994948
      }
    }
  }
}
node {
  name: "ENet/bottleneck1_0_conv2/kernel/Regularizer/l2_regularizer/L2Loss"
  op: "L2Loss"
  input: "ENet/bottleneck1_0_conv2/weights/read"
  attr {
    key: "T"
    value {
      type: DT_FLOAT
    }
  }
  attr {
    key: "_class"
    value {
      list {
        s: "loc:@ENet/bottleneck1_0_conv2/weights"
      }
    }
  }
}
node {
  name: "ENet/bottleneck1_0_conv2/kernel/Regularizer/l2_regularizer"
  op: "Mul"
  input: "ENet/bottleneck1_0_conv2/kernel/Regularizer/l2_regularizer/scale"
  input: "ENet/bottleneck1_0_conv2/kernel/Regularizer/l2_regularizer/L2Loss"
  attr {
    key: "T"
    value {
      type: DT_FLOAT
    }
  }
  attr {
    key: "_class"
    value {
      list {
        s: "loc:@ENet/bottleneck1_0_conv2/weights"
      }
    }
  }
}
node {
  name: "ENet/bottleneck1_0_conv2/biases/Initializer/zeros"
  op: "Const"
  attr {
    key: "_class"
    value {
      list {
        s: "loc:@ENet/bottleneck1_0_conv2/biases"
      }
    }
  }
  attr {
    key: "dtype"
    value {
      type: DT_FLOAT
    }
  }
  attr {
    key: "value"
    value {
      tensor {
        dtype: DT_FLOAT
        tensor_shape {
          dim {
            size: 4
          }
        }
        float_val: 0.0
      }
    }
  }
}
node {
  name: "ENet/bottleneck1_0_conv2/biases"
  op: "VariableV2"
  attr {
    key: "_class"
    value {
      list {
        s: "loc:@ENet/bottleneck1_0_conv2/biases"
      }
    }
  }
  attr {
    key: "container"
    value {
      s: ""
    }
  }
  attr {
    key: "dtype"
    value {
      type: DT_FLOAT
    }
  }
  attr {
    key: "shape"
    value {
      shape {
        dim {
          size: 4
        }
      }
    }
  }
  attr {
    key: "shared_name"
    value {
      s: ""
    }
  }
}
node {
  name: "ENet/bottleneck1_0_conv2/biases/Assign"
  op: "Assign"
  input: "ENet/bottleneck1_0_conv2/biases"
  input: "ENet/bottleneck1_0_conv2/biases/Initializer/zeros"
  attr {
    key: "T"
    value {
      type: DT_FLOAT
    }
  }
  attr {
    key: "_class"
    value {
      list {
        s: "loc:@ENet/bottleneck1_0_conv2/biases"
      }
    }
  }
  attr {
    key: "use_locking"
    value {
      b: true
    }
  }
  attr {
    key: "validate_shape"
    value {
      b: true
    }
  }
}
node {
  name: "ENet/bottleneck1_0_conv2/biases/read"
  op: "Identity"
  input: "ENet/bottleneck1_0_conv2/biases"
  attr {
    key: "T"
    value {
      type: DT_FLOAT
    }
  }
  attr {
    key: "_class"
    value {
      list {
        s: "loc:@ENet/bottleneck1_0_conv2/biases"
      }
    }
  }
}
node {
  name: "ENet/bottleneck1_0_conv2/bias/Regularizer/l2_regularizer/scale"
  op: "Const"
  attr {
    key: "_class"
    value {
      list {
        s: "loc:@ENet/bottleneck1_0_conv2/biases"
      }
    }
  }
  attr {
    key: "dtype"
    value {
      type: DT_FLOAT
    }
  }
  attr {
    key: "value"
    value {
      tensor {
        dtype: DT_FLOAT
        tensor_shape {
        }
        float_val: 0.000199999994948
      }
    }
  }
}
node {
  name: "ENet/bottleneck1_0_conv2/bias/Regularizer/l2_regularizer/L2Loss"
  op: "L2Loss"
  input: "ENet/bottleneck1_0_conv2/biases/read"
  attr {
    key: "T"
    value {
      type: DT_FLOAT
    }
  }
  attr {
    key: "_class"
    value {
      list {
        s: "loc:@ENet/bottleneck1_0_conv2/biases"
      }
    }
  }
}
node {
  name: "ENet/bottleneck1_0_conv2/bias/Regularizer/l2_regularizer"
  op: "Mul"
  input: "ENet/bottleneck1_0_conv2/bias/Regularizer/l2_regularizer/scale"
  input: "ENet/bottleneck1_0_conv2/bias/Regularizer/l2_regularizer/L2Loss"
  attr {
    key: "T"
    value {
      type: DT_FLOAT
    }
  }
  attr {
    key: "_class"
    value {
      list {
        s: "loc:@ENet/bottleneck1_0_conv2/biases"
      }
    }
  }
}
node {
  name: "ENet/bottleneck1_0_conv2/dilation_rate"
  op: "Const"
  attr {
    key: "dtype"
    value {
      type: DT_INT32
    }
  }
  attr {
    key: "value"
    value {
      tensor {
        dtype: DT_INT32
        tensor_shape {
          dim {
            size: 2
          }
        }
        tensor_content: "\001\000\000\000\001\000\000\000"
      }
    }
  }
}
node {
  name: "ENet/bottleneck1_0_conv2/Conv2D"
  op: "Conv2D"
  input: "ENet/add_1"
  input: "ENet/bottleneck1_0_conv2/weights/read"
  attr {
    key: "T"
    value {
      type: DT_FLOAT
    }
  }
  attr {
    key: "data_format"
    value {
      s: "NHWC"
    }
  }
  attr {
    key: "dilations"
    value {
      list {
        i: 1
        i: 1
        i: 1
        i: 1
      }
    }
  }
  attr {
    key: "padding"
    value {
      s: "SAME"
    }
  }
  attr {
    key: "strides"
    value {
      list {
        i: 1
        i: 1
        i: 1
        i: 1
      }
    }
  }
  attr {
    key: "use_cudnn_on_gpu"
    value {
      b: true
    }
  }
}
node {
  name: "ENet/bottleneck1_0_conv2/BiasAdd"
  op: "BiasAdd"
  input: "ENet/bottleneck1_0_conv2/Conv2D"
  input: "ENet/bottleneck1_0_conv2/biases/read"
  attr {
    key: "T"
    value {
      type: DT_FLOAT
    }
  }
  attr {
    key: "data_format"
    value {
      s: "NHWC"
    }
  }
}
node {
  name: "ENet/bottleneck1_0_batch_norm2/Const"
  op: "Const"
  attr {
    key: "dtype"
    value {
      type: DT_FLOAT
    }
  }
  attr {
    key: "value"
    value {
      tensor {
        dtype: DT_FLOAT
        tensor_shape {
          dim {
            size: 4
          }
        }
        float_val: 1.0
      }
    }
  }
}
node {
  name: "ENet/bottleneck1_0_batch_norm2/beta/Initializer/zeros"
  op: "Const"
  attr {
    key: "_class"
    value {
      list {
        s: "loc:@ENet/bottleneck1_0_batch_norm2/beta"
      }
    }
  }
  attr {
    key: "dtype"
    value {
      type: DT_FLOAT
    }
  }
  attr {
    key: "value"
    value {
      tensor {
        dtype: DT_FLOAT
        tensor_shape {
          dim {
            size: 4
          }
        }
        float_val: 0.0
      }
    }
  }
}
node {
  name: "ENet/bottleneck1_0_batch_norm2/beta"
  op: "VariableV2"
  attr {
    key: "_class"
    value {
      list {
        s: "loc:@ENet/bottleneck1_0_batch_norm2/beta"
      }
    }
  }
  attr {
    key: "container"
    value {
      s: ""
    }
  }
  attr {
    key: "dtype"
    value {
      type: DT_FLOAT
    }
  }
  attr {
    key: "shape"
    value {
      shape {
        dim {
          size: 4
        }
      }
    }
  }
  attr {
    key: "shared_name"
    value {
      s: ""
    }
  }
}
node {
  name: "ENet/bottleneck1_0_batch_norm2/beta/Assign"
  op: "Assign"
  input: "ENet/bottleneck1_0_batch_norm2/beta"
  input: "ENet/bottleneck1_0_batch_norm2/beta/Initializer/zeros"
  attr {
    key: "T"
    value {
      type: DT_FLOAT
    }
  }
  attr {
    key: "_class"
    value {
      list {
        s: "loc:@ENet/bottleneck1_0_batch_norm2/beta"
      }
    }
  }
  attr {
    key: "use_locking"
    value {
      b: true
    }
  }
  attr {
    key: "validate_shape"
    value {
      b: true
    }
  }
}
node {
  name: "ENet/bottleneck1_0_batch_norm2/beta/read"
  op: "Identity"
  input: "ENet/bottleneck1_0_batch_norm2/beta"
  attr {
    key: "T"
    value {
      type: DT_FLOAT
    }
  }
  attr {
    key: "_class"
    value {
      list {
        s: "loc:@ENet/bottleneck1_0_batch_norm2/beta"
      }
    }
  }
}
node {
  name: "ENet/bottleneck1_0_batch_norm2/moving_mean/Initializer/zeros"
  op: "Const"
  attr {
    key: "_class"
    value {
      list {
        s: "loc:@ENet/bottleneck1_0_batch_norm2/moving_mean"
      }
    }
  }
  attr {
    key: "dtype"
    value {
      type: DT_FLOAT
    }
  }
  attr {
    key: "value"
    value {
      tensor {
        dtype: DT_FLOAT
        tensor_shape {
          dim {
            size: 4
          }
        }
        float_val: 0.0
      }
    }
  }
}
node {
  name: "ENet/bottleneck1_0_batch_norm2/moving_mean"
  op: "VariableV2"
  attr {
    key: "_class"
    value {
      list {
        s: "loc:@ENet/bottleneck1_0_batch_norm2/moving_mean"
      }
    }
  }
  attr {
    key: "container"
    value {
      s: ""
    }
  }
  attr {
    key: "dtype"
    value {
      type: DT_FLOAT
    }
  }
  attr {
    key: "shape"
    value {
      shape {
        dim {
          size: 4
        }
      }
    }
  }
  attr {
    key: "shared_name"
    value {
      s: ""
    }
  }
}
node {
  name: "ENet/bottleneck1_0_batch_norm2/moving_mean/Assign"
  op: "Assign"
  input: "ENet/bottleneck1_0_batch_norm2/moving_mean"
  input: "ENet/bottleneck1_0_batch_norm2/moving_mean/Initializer/zeros"
  attr {
    key: "T"
    value {
      type: DT_FLOAT
    }
  }
  attr {
    key: "_class"
    value {
      list {
        s: "loc:@ENet/bottleneck1_0_batch_norm2/moving_mean"
      }
    }
  }
  attr {
    key: "use_locking"
    value {
      b: true
    }
  }
  attr {
    key: "validate_shape"
    value {
      b: true
    }
  }
}
node {
  name: "ENet/bottleneck1_0_batch_norm2/moving_mean/read"
  op: "Identity"
  input: "ENet/bottleneck1_0_batch_norm2/moving_mean"
  attr {
    key: "T"
    value {
      type: DT_FLOAT
    }
  }
  attr {
    key: "_class"
    value {
      list {
        s: "loc:@ENet/bottleneck1_0_batch_norm2/moving_mean"
      }
    }
  }
}
node {
  name: "ENet/bottleneck1_0_batch_norm2/moving_variance/Initializer/ones"
  op: "Const"
  attr {
    key: "_class"
    value {
      list {
        s: "loc:@ENet/bottleneck1_0_batch_norm2/moving_variance"
      }
    }
  }
  attr {
    key: "dtype"
    value {
      type: DT_FLOAT
    }
  }
  attr {
    key: "value"
    value {
      tensor {
        dtype: DT_FLOAT
        tensor_shape {
          dim {
            size: 4
          }
        }
        float_val: 1.0
      }
    }
  }
}
node {
  name: "ENet/bottleneck1_0_batch_norm2/moving_variance"
  op: "VariableV2"
  attr {
    key: "_class"
    value {
      list {
        s: "loc:@ENet/bottleneck1_0_batch_norm2/moving_variance"
      }
    }
  }
  attr {
    key: "container"
    value {
      s: ""
    }
  }
  attr {
    key: "dtype"
    value {
      type: DT_FLOAT
    }
  }
  attr {
    key: "shape"
    value {
      shape {
        dim {
          size: 4
        }
      }
    }
  }
  attr {
    key: "shared_name"
    value {
      s: ""
    }
  }
}
node {
  name: "ENet/bottleneck1_0_batch_norm2/moving_variance/Assign"
  op: "Assign"
  input: "ENet/bottleneck1_0_batch_norm2/moving_variance"
  input: "ENet/bottleneck1_0_batch_norm2/moving_variance/Initializer/ones"
  attr {
    key: "T"
    value {
      type: DT_FLOAT
    }
  }
  attr {
    key: "_class"
    value {
      list {
        s: "loc:@ENet/bottleneck1_0_batch_norm2/moving_variance"
      }
    }
  }
  attr {
    key: "use_locking"
    value {
      b: true
    }
  }
  attr {
    key: "validate_shape"
    value {
      b: true
    }
  }
}
node {
  name: "ENet/bottleneck1_0_batch_norm2/moving_variance/read"
  op: "Identity"
  input: "ENet/bottleneck1_0_batch_norm2/moving_variance"
  attr {
    key: "T"
    value {
      type: DT_FLOAT
    }
  }
  attr {
    key: "_class"
    value {
      list {
        s: "loc:@ENet/bottleneck1_0_batch_norm2/moving_variance"
      }
    }
  }
}
node {
  name: "ENet/bottleneck1_0_batch_norm2/FusedBatchNorm"
  op: "FusedBatchNorm"
  input: "ENet/bottleneck1_0_conv2/BiasAdd"
  input: "ENet/bottleneck1_0_batch_norm2/Const"
  input: "ENet/bottleneck1_0_batch_norm2/beta/read"
  input: "ENet/bottleneck1_0_batch_norm2/moving_mean/read"
  input: "ENet/bottleneck1_0_batch_norm2/moving_variance/read"
  attr {
    key: "T"
    value {
      type: DT_FLOAT
    }
  }
  attr {
    key: "data_format"
    value {
      s: "NHWC"
    }
  }
  attr {
    key: "epsilon"
    value {
      f: 0.0010000000475
    }
  }
  attr {
    key: "is_training"
    value {
      b: false
    }
  }
}
node {
  name: "ENet/bottleneck1_0_batch_norm2/Const_1"
  op: "Const"
  attr {
    key: "dtype"
    value {
      type: DT_FLOAT
    }
  }
  attr {
    key: "value"
    value {
      tensor {
        dtype: DT_FLOAT
        tensor_shape {
        }
        float_val: 0.10000000149
      }
    }
  }
}
node {
  name: "ENet/bottleneck1_0_prelu2alpha/Initializer/Const"
  op: "Const"
  attr {
    key: "_class"
    value {
      list {
        s: "loc:@ENet/bottleneck1_0_prelu2alpha"
      }
    }
  }
  attr {
    key: "dtype"
    value {
      type: DT_FLOAT
    }
  }
  attr {
    key: "value"
    value {
      tensor {
        dtype: DT_FLOAT
        tensor_shape {
          dim {
            size: 4
          }
        }
        float_val: 0.0
      }
    }
  }
}
node {
  name: "ENet/bottleneck1_0_prelu2alpha"
  op: "VariableV2"
  attr {
    key: "_class"
    value {
      list {
        s: "loc:@ENet/bottleneck1_0_prelu2alpha"
      }
    }
  }
  attr {
    key: "container"
    value {
      s: ""
    }
  }
  attr {
    key: "dtype"
    value {
      type: DT_FLOAT
    }
  }
  attr {
    key: "shape"
    value {
      shape {
        dim {
          size: 4
        }
      }
    }
  }
  attr {
    key: "shared_name"
    value {
      s: ""
    }
  }
}
node {
  name: "ENet/bottleneck1_0_prelu2alpha/Assign"
  op: "Assign"
  input: "ENet/bottleneck1_0_prelu2alpha"
  input: "ENet/bottleneck1_0_prelu2alpha/Initializer/Const"
  attr {
    key: "T"
    value {
      type: DT_FLOAT
    }
  }
  attr {
    key: "_class"
    value {
      list {
        s: "loc:@ENet/bottleneck1_0_prelu2alpha"
      }
    }
  }
  attr {
    key: "use_locking"
    value {
      b: true
    }
  }
  attr {
    key: "validate_shape"
    value {
      b: true
    }
  }
}
node {
  name: "ENet/bottleneck1_0_prelu2alpha/read"
  op: "Identity"
  input: "ENet/bottleneck1_0_prelu2alpha"
  attr {
    key: "T"
    value {
      type: DT_FLOAT
    }
  }
  attr {
    key: "_class"
    value {
      list {
        s: "loc:@ENet/bottleneck1_0_prelu2alpha"
      }
    }
  }
}
node {
  name: "ENet/Relu_2"
  op: "Relu"
  input: "ENet/bottleneck1_0_batch_norm2/FusedBatchNorm"
  attr {
    key: "T"
    value {
      type: DT_FLOAT
    }
  }
}
node {
  name: "ENet/Abs_2"
  op: "Abs"
  input: "ENet/bottleneck1_0_batch_norm2/FusedBatchNorm"
  attr {
    key: "T"
    value {
      type: DT_FLOAT
    }
  }
}
node {
  name: "ENet/sub_2"
  op: "Sub"
  input: "ENet/bottleneck1_0_batch_norm2/FusedBatchNorm"
  input: "ENet/Abs_2"
  attr {
    key: "T"
    value {
      type: DT_FLOAT
    }
  }
}
node {
  name: "ENet/mul_4"
  op: "Mul"
  input: "ENet/bottleneck1_0_prelu2alpha/read"
  input: "ENet/sub_2"
  attr {
    key: "T"
    value {
      type: DT_FLOAT
    }
  }
}
node {
  name: "ENet/mul_5/y"
  op: "Const"
  attr {
    key: "dtype"
    value {
      type: DT_FLOAT
    }
  }
  attr {
    key: "value"
    value {
      tensor {
        dtype: DT_FLOAT
        tensor_shape {
        }
        float_val: 0.5
      }
    }
  }
}
node {
  name: "ENet/mul_5"
  op: "Mul"
  input: "ENet/mul_4"
  input: "ENet/mul_5/y"
  attr {
    key: "T"
    value {
      type: DT_FLOAT
    }
  }
}
node {
  name: "ENet/add_2"
  op: "Add"
  input: "ENet/Relu_2"
  input: "ENet/mul_5"
  attr {
    key: "T"
    value {
      type: DT_FLOAT
    }
  }
}
node {
  name: "ENet/bottleneck1_0_conv3/weights/Initializer/random_uniform/shape"
  op: "Const"
  attr {
    key: "_class"
    value {
      list {
        s: "loc:@ENet/bottleneck1_0_conv3/weights"
      }
    }
  }
  attr {
    key: "dtype"
    value {
      type: DT_INT32
    }
  }
  attr {
    key: "value"
    value {
      tensor {
        dtype: DT_INT32
        tensor_shape {
          dim {
            size: 4
          }
        }
        tensor_content: "\001\000\000\000\001\000\000\000\004\000\000\000@\000\000\000"
      }
    }
  }
}
node {
  name: "ENet/bottleneck1_0_conv3/weights/Initializer/random_uniform/min"
  op: "Const"
  attr {
    key: "_class"
    value {
      list {
        s: "loc:@ENet/bottleneck1_0_conv3/weights"
      }
    }
  }
  attr {
    key: "dtype"
    value {
      type: DT_FLOAT
    }
  }
  attr {
    key: "value"
    value {
      tensor {
        dtype: DT_FLOAT
        tensor_shape {
        }
        float_val: -0.297044277191
      }
    }
  }
}
node {
  name: "ENet/bottleneck1_0_conv3/weights/Initializer/random_uniform/max"
  op: "Const"
  attr {
    key: "_class"
    value {
      list {
        s: "loc:@ENet/bottleneck1_0_conv3/weights"
      }
    }
  }
  attr {
    key: "dtype"
    value {
      type: DT_FLOAT
    }
  }
  attr {
    key: "value"
    value {
      tensor {
        dtype: DT_FLOAT
        tensor_shape {
        }
        float_val: 0.297044277191
      }
    }
  }
}
node {
  name: "ENet/bottleneck1_0_conv3/weights/Initializer/random_uniform/RandomUniform"
  op: "RandomUniform"
  input: "ENet/bottleneck1_0_conv3/weights/Initializer/random_uniform/shape"
  attr {
    key: "T"
    value {
      type: DT_INT32
    }
  }
  attr {
    key: "_class"
    value {
      list {
        s: "loc:@ENet/bottleneck1_0_conv3/weights"
      }
    }
  }
  attr {
    key: "dtype"
    value {
      type: DT_FLOAT
    }
  }
  attr {
    key: "seed"
    value {
      i: 0
    }
  }
  attr {
    key: "seed2"
    value {
      i: 0
    }
  }
}
node {
  name: "ENet/bottleneck1_0_conv3/weights/Initializer/random_uniform/sub"
  op: "Sub"
  input: "ENet/bottleneck1_0_conv3/weights/Initializer/random_uniform/max"
  input: "ENet/bottleneck1_0_conv3/weights/Initializer/random_uniform/min"
  attr {
    key: "T"
    value {
      type: DT_FLOAT
    }
  }
  attr {
    key: "_class"
    value {
      list {
        s: "loc:@ENet/bottleneck1_0_conv3/weights"
      }
    }
  }
}
node {
  name: "ENet/bottleneck1_0_conv3/weights/Initializer/random_uniform/mul"
  op: "Mul"
  input: "ENet/bottleneck1_0_conv3/weights/Initializer/random_uniform/RandomUniform"
  input: "ENet/bottleneck1_0_conv3/weights/Initializer/random_uniform/sub"
  attr {
    key: "T"
    value {
      type: DT_FLOAT
    }
  }
  attr {
    key: "_class"
    value {
      list {
        s: "loc:@ENet/bottleneck1_0_conv3/weights"
      }
    }
  }
}
node {
  name: "ENet/bottleneck1_0_conv3/weights/Initializer/random_uniform"
  op: "Add"
  input: "ENet/bottleneck1_0_conv3/weights/Initializer/random_uniform/mul"
  input: "ENet/bottleneck1_0_conv3/weights/Initializer/random_uniform/min"
  attr {
    key: "T"
    value {
      type: DT_FLOAT
    }
  }
  attr {
    key: "_class"
    value {
      list {
        s: "loc:@ENet/bottleneck1_0_conv3/weights"
      }
    }
  }
}
node {
  name: "ENet/bottleneck1_0_conv3/weights"
  op: "VariableV2"
  attr {
    key: "_class"
    value {
      list {
        s: "loc:@ENet/bottleneck1_0_conv3/weights"
      }
    }
  }
  attr {
    key: "container"
    value {
      s: ""
    }
  }
  attr {
    key: "dtype"
    value {
      type: DT_FLOAT
    }
  }
  attr {
    key: "shape"
    value {
      shape {
        dim {
          size: 1
        }
        dim {
          size: 1
        }
        dim {
          size: 4
        }
        dim {
          size: 64
        }
      }
    }
  }
  attr {
    key: "shared_name"
    value {
      s: ""
    }
  }
}
node {
  name: "ENet/bottleneck1_0_conv3/weights/Assign"
  op: "Assign"
  input: "ENet/bottleneck1_0_conv3/weights"
  input: "ENet/bottleneck1_0_conv3/weights/Initializer/random_uniform"
  attr {
    key: "T"
    value {
      type: DT_FLOAT
    }
  }
  attr {
    key: "_class"
    value {
      list {
        s: "loc:@ENet/bottleneck1_0_conv3/weights"
      }
    }
  }
  attr {
    key: "use_locking"
    value {
      b: true
    }
  }
  attr {
    key: "validate_shape"
    value {
      b: true
    }
  }
}
node {
  name: "ENet/bottleneck1_0_conv3/weights/read"
  op: "Identity"
  input: "ENet/bottleneck1_0_conv3/weights"
  attr {
    key: "T"
    value {
      type: DT_FLOAT
    }
  }
  attr {
    key: "_class"
    value {
      list {
        s: "loc:@ENet/bottleneck1_0_conv3/weights"
      }
    }
  }
}
node {
  name: "ENet/bottleneck1_0_conv3/kernel/Regularizer/l2_regularizer/scale"
  op: "Const"
  attr {
    key: "_class"
    value {
      list {
        s: "loc:@ENet/bottleneck1_0_conv3/weights"
      }
    }
  }
  attr {
    key: "dtype"
    value {
      type: DT_FLOAT
    }
  }
  attr {
    key: "value"
    value {
      tensor {
        dtype: DT_FLOAT
        tensor_shape {
        }
        float_val: 0.000199999994948
      }
    }
  }
}
node {
  name: "ENet/bottleneck1_0_conv3/kernel/Regularizer/l2_regularizer/L2Loss"
  op: "L2Loss"
  input: "ENet/bottleneck1_0_conv3/weights/read"
  attr {
    key: "T"
    value {
      type: DT_FLOAT
    }
  }
  attr {
    key: "_class"
    value {
      list {
        s: "loc:@ENet/bottleneck1_0_conv3/weights"
      }
    }
  }
}
node {
  name: "ENet/bottleneck1_0_conv3/kernel/Regularizer/l2_regularizer"
  op: "Mul"
  input: "ENet/bottleneck1_0_conv3/kernel/Regularizer/l2_regularizer/scale"
  input: "ENet/bottleneck1_0_conv3/kernel/Regularizer/l2_regularizer/L2Loss"
  attr {
    key: "T"
    value {
      type: DT_FLOAT
    }
  }
  attr {
    key: "_class"
    value {
      list {
        s: "loc:@ENet/bottleneck1_0_conv3/weights"
      }
    }
  }
}
node {
  name: "ENet/bottleneck1_0_conv3/biases/Initializer/zeros"
  op: "Const"
  attr {
    key: "_class"
    value {
      list {
        s: "loc:@ENet/bottleneck1_0_conv3/biases"
      }
    }
  }
  attr {
    key: "dtype"
    value {
      type: DT_FLOAT
    }
  }
  attr {
    key: "value"
    value {
      tensor {
        dtype: DT_FLOAT
        tensor_shape {
          dim {
            size: 64
          }
        }
        float_val: 0.0
      }
    }
  }
}
node {
  name: "ENet/bottleneck1_0_conv3/biases"
  op: "VariableV2"
  attr {
    key: "_class"
    value {
      list {
        s: "loc:@ENet/bottleneck1_0_conv3/biases"
      }
    }
  }
  attr {
    key: "container"
    value {
      s: ""
    }
  }
  attr {
    key: "dtype"
    value {
      type: DT_FLOAT
    }
  }
  attr {
    key: "shape"
    value {
      shape {
        dim {
          size: 64
        }
      }
    }
  }
  attr {
    key: "shared_name"
    value {
      s: ""
    }
  }
}
node {
  name: "ENet/bottleneck1_0_conv3/biases/Assign"
  op: "Assign"
  input: "ENet/bottleneck1_0_conv3/biases"
  input: "ENet/bottleneck1_0_conv3/biases/Initializer/zeros"
  attr {
    key: "T"
    value {
      type: DT_FLOAT
    }
  }
  attr {
    key: "_class"
    value {
      list {
        s: "loc:@ENet/bottleneck1_0_conv3/biases"
      }
    }
  }
  attr {
    key: "use_locking"
    value {
      b: true
    }
  }
  attr {
    key: "validate_shape"
    value {
      b: true
    }
  }
}
node {
  name: "ENet/bottleneck1_0_conv3/biases/read"
  op: "Identity"
  input: "ENet/bottleneck1_0_conv3/biases"
  attr {
    key: "T"
    value {
      type: DT_FLOAT
    }
  }
  attr {
    key: "_class"
    value {
      list {
        s: "loc:@ENet/bottleneck1_0_conv3/biases"
      }
    }
  }
}
node {
  name: "ENet/bottleneck1_0_conv3/bias/Regularizer/l2_regularizer/scale"
  op: "Const"
  attr {
    key: "_class"
    value {
      list {
        s: "loc:@ENet/bottleneck1_0_conv3/biases"
      }
    }
  }
  attr {
    key: "dtype"
    value {
      type: DT_FLOAT
    }
  }
  attr {
    key: "value"
    value {
      tensor {
        dtype: DT_FLOAT
        tensor_shape {
        }
        float_val: 0.000199999994948
      }
    }
  }
}
node {
  name: "ENet/bottleneck1_0_conv3/bias/Regularizer/l2_regularizer/L2Loss"
  op: "L2Loss"
  input: "ENet/bottleneck1_0_conv3/biases/read"
  attr {
    key: "T"
    value {
      type: DT_FLOAT
    }
  }
  attr {
    key: "_class"
    value {
      list {
        s: "loc:@ENet/bottleneck1_0_conv3/biases"
      }
    }
  }
}
node {
  name: "ENet/bottleneck1_0_conv3/bias/Regularizer/l2_regularizer"
  op: "Mul"
  input: "ENet/bottleneck1_0_conv3/bias/Regularizer/l2_regularizer/scale"
  input: "ENet/bottleneck1_0_conv3/bias/Regularizer/l2_regularizer/L2Loss"
  attr {
    key: "T"
    value {
      type: DT_FLOAT
    }
  }
  attr {
    key: "_class"
    value {
      list {
        s: "loc:@ENet/bottleneck1_0_conv3/biases"
      }
    }
  }
}
node {
  name: "ENet/bottleneck1_0_conv3/dilation_rate"
  op: "Const"
  attr {
    key: "dtype"
    value {
      type: DT_INT32
    }
  }
  attr {
    key: "value"
    value {
      tensor {
        dtype: DT_INT32
        tensor_shape {
          dim {
            size: 2
          }
        }
        tensor_content: "\001\000\000\000\001\000\000\000"
      }
    }
  }
}
node {
  name: "ENet/bottleneck1_0_conv3/Conv2D"
  op: "Conv2D"
  input: "ENet/add_2"
  input: "ENet/bottleneck1_0_conv3/weights/read"
  attr {
    key: "T"
    value {
      type: DT_FLOAT
    }
  }
  attr {
    key: "data_format"
    value {
      s: "NHWC"
    }
  }
  attr {
    key: "dilations"
    value {
      list {
        i: 1
        i: 1
        i: 1
        i: 1
      }
    }
  }
  attr {
    key: "padding"
    value {
      s: "SAME"
    }
  }
  attr {
    key: "strides"
    value {
      list {
        i: 1
        i: 1
        i: 1
        i: 1
      }
    }
  }
  attr {
    key: "use_cudnn_on_gpu"
    value {
      b: true
    }
  }
}
node {
  name: "ENet/bottleneck1_0_conv3/BiasAdd"
  op: "BiasAdd"
  input: "ENet/bottleneck1_0_conv3/Conv2D"
  input: "ENet/bottleneck1_0_conv3/biases/read"
  attr {
    key: "T"
    value {
      type: DT_FLOAT
    }
  }
  attr {
    key: "data_format"
    value {
      s: "NHWC"
    }
  }
}
node {
  name: "ENet/bottleneck1_0_batch_norm3/Const"
  op: "Const"
  attr {
    key: "dtype"
    value {
      type: DT_FLOAT
    }
  }
  attr {
    key: "value"
    value {
      tensor {
        dtype: DT_FLOAT
        tensor_shape {
          dim {
            size: 64
          }
        }
        float_val: 1.0
      }
    }
  }
}
node {
  name: "ENet/bottleneck1_0_batch_norm3/beta/Initializer/zeros"
  op: "Const"
  attr {
    key: "_class"
    value {
      list {
        s: "loc:@ENet/bottleneck1_0_batch_norm3/beta"
      }
    }
  }
  attr {
    key: "dtype"
    value {
      type: DT_FLOAT
    }
  }
  attr {
    key: "value"
    value {
      tensor {
        dtype: DT_FLOAT
        tensor_shape {
          dim {
            size: 64
          }
        }
        float_val: 0.0
      }
    }
  }
}
node {
  name: "ENet/bottleneck1_0_batch_norm3/beta"
  op: "VariableV2"
  attr {
    key: "_class"
    value {
      list {
        s: "loc:@ENet/bottleneck1_0_batch_norm3/beta"
      }
    }
  }
  attr {
    key: "container"
    value {
      s: ""
    }
  }
  attr {
    key: "dtype"
    value {
      type: DT_FLOAT
    }
  }
  attr {
    key: "shape"
    value {
      shape {
        dim {
          size: 64
        }
      }
    }
  }
  attr {
    key: "shared_name"
    value {
      s: ""
    }
  }
}
node {
  name: "ENet/bottleneck1_0_batch_norm3/beta/Assign"
  op: "Assign"
  input: "ENet/bottleneck1_0_batch_norm3/beta"
  input: "ENet/bottleneck1_0_batch_norm3/beta/Initializer/zeros"
  attr {
    key: "T"
    value {
      type: DT_FLOAT
    }
  }
  attr {
    key: "_class"
    value {
      list {
        s: "loc:@ENet/bottleneck1_0_batch_norm3/beta"
      }
    }
  }
  attr {
    key: "use_locking"
    value {
      b: true
    }
  }
  attr {
    key: "validate_shape"
    value {
      b: true
    }
  }
}
node {
  name: "ENet/bottleneck1_0_batch_norm3/beta/read"
  op: "Identity"
  input: "ENet/bottleneck1_0_batch_norm3/beta"
  attr {
    key: "T"
    value {
      type: DT_FLOAT
    }
  }
  attr {
    key: "_class"
    value {
      list {
        s: "loc:@ENet/bottleneck1_0_batch_norm3/beta"
      }
    }
  }
}
node {
  name: "ENet/bottleneck1_0_batch_norm3/moving_mean/Initializer/zeros"
  op: "Const"
  attr {
    key: "_class"
    value {
      list {
        s: "loc:@ENet/bottleneck1_0_batch_norm3/moving_mean"
      }
    }
  }
  attr {
    key: "dtype"
    value {
      type: DT_FLOAT
    }
  }
  attr {
    key: "value"
    value {
      tensor {
        dtype: DT_FLOAT
        tensor_shape {
          dim {
            size: 64
          }
        }
        float_val: 0.0
      }
    }
  }
}
node {
  name: "ENet/bottleneck1_0_batch_norm3/moving_mean"
  op: "VariableV2"
  attr {
    key: "_class"
    value {
      list {
        s: "loc:@ENet/bottleneck1_0_batch_norm3/moving_mean"
      }
    }
  }
  attr {
    key: "container"
    value {
      s: ""
    }
  }
  attr {
    key: "dtype"
    value {
      type: DT_FLOAT
    }
  }
  attr {
    key: "shape"
    value {
      shape {
        dim {
          size: 64
        }
      }
    }
  }
  attr {
    key: "shared_name"
    value {
      s: ""
    }
  }
}
node {
  name: "ENet/bottleneck1_0_batch_norm3/moving_mean/Assign"
  op: "Assign"
  input: "ENet/bottleneck1_0_batch_norm3/moving_mean"
  input: "ENet/bottleneck1_0_batch_norm3/moving_mean/Initializer/zeros"
  attr {
    key: "T"
    value {
      type: DT_FLOAT
    }
  }
  attr {
    key: "_class"
    value {
      list {
        s: "loc:@ENet/bottleneck1_0_batch_norm3/moving_mean"
      }
    }
  }
  attr {
    key: "use_locking"
    value {
      b: true
    }
  }
  attr {
    key: "validate_shape"
    value {
      b: true
    }
  }
}
node {
  name: "ENet/bottleneck1_0_batch_norm3/moving_mean/read"
  op: "Identity"
  input: "ENet/bottleneck1_0_batch_norm3/moving_mean"
  attr {
    key: "T"
    value {
      type: DT_FLOAT
    }
  }
  attr {
    key: "_class"
    value {
      list {
        s: "loc:@ENet/bottleneck1_0_batch_norm3/moving_mean"
      }
    }
  }
}
node {
  name: "ENet/bottleneck1_0_batch_norm3/moving_variance/Initializer/ones"
  op: "Const"
  attr {
    key: "_class"
    value {
      list {
        s: "loc:@ENet/bottleneck1_0_batch_norm3/moving_variance"
      }
    }
  }
  attr {
    key: "dtype"
    value {
      type: DT_FLOAT
    }
  }
  attr {
    key: "value"
    value {
      tensor {
        dtype: DT_FLOAT
        tensor_shape {
          dim {
            size: 64
          }
        }
        float_val: 1.0
      }
    }
  }
}
node {
  name: "ENet/bottleneck1_0_batch_norm3/moving_variance"
  op: "VariableV2"
  attr {
    key: "_class"
    value {
      list {
        s: "loc:@ENet/bottleneck1_0_batch_norm3/moving_variance"
      }
    }
  }
  attr {
    key: "container"
    value {
      s: ""
    }
  }
  attr {
    key: "dtype"
    value {
      type: DT_FLOAT
    }
  }
  attr {
    key: "shape"
    value {
      shape {
        dim {
          size: 64
        }
      }
    }
  }
  attr {
    key: "shared_name"
    value {
      s: ""
    }
  }
}
node {
  name: "ENet/bottleneck1_0_batch_norm3/moving_variance/Assign"
  op: "Assign"
  input: "ENet/bottleneck1_0_batch_norm3/moving_variance"
  input: "ENet/bottleneck1_0_batch_norm3/moving_variance/Initializer/ones"
  attr {
    key: "T"
    value {
      type: DT_FLOAT
    }
  }
  attr {
    key: "_class"
    value {
      list {
        s: "loc:@ENet/bottleneck1_0_batch_norm3/moving_variance"
      }
    }
  }
  attr {
    key: "use_locking"
    value {
      b: true
    }
  }
  attr {
    key: "validate_shape"
    value {
      b: true
    }
  }
}
node {
  name: "ENet/bottleneck1_0_batch_norm3/moving_variance/read"
  op: "Identity"
  input: "ENet/bottleneck1_0_batch_norm3/moving_variance"
  attr {
    key: "T"
    value {
      type: DT_FLOAT
    }
  }
  attr {
    key: "_class"
    value {
      list {
        s: "loc:@ENet/bottleneck1_0_batch_norm3/moving_variance"
      }
    }
  }
}
node {
  name: "ENet/bottleneck1_0_batch_norm3/FusedBatchNorm"
  op: "FusedBatchNorm"
  input: "ENet/bottleneck1_0_conv3/BiasAdd"
  input: "ENet/bottleneck1_0_batch_norm3/Const"
  input: "ENet/bottleneck1_0_batch_norm3/beta/read"
  input: "ENet/bottleneck1_0_batch_norm3/moving_mean/read"
  input: "ENet/bottleneck1_0_batch_norm3/moving_variance/read"
  attr {
    key: "T"
    value {
      type: DT_FLOAT
    }
  }
  attr {
    key: "data_format"
    value {
      s: "NHWC"
    }
  }
  attr {
    key: "epsilon"
    value {
      f: 0.0010000000475
    }
  }
  attr {
    key: "is_training"
    value {
      b: false
    }
  }
}
node {
  name: "ENet/bottleneck1_0_batch_norm3/Const_1"
  op: "Const"
  attr {
    key: "dtype"
    value {
      type: DT_FLOAT
    }
  }
  attr {
    key: "value"
    value {
      tensor {
        dtype: DT_FLOAT
        tensor_shape {
        }
        float_val: 0.10000000149
      }
    }
  }
}
node {
  name: "ENet/bottleneck1_0_prelu3alpha/Initializer/Const"
  op: "Const"
  attr {
    key: "_class"
    value {
      list {
        s: "loc:@ENet/bottleneck1_0_prelu3alpha"
      }
    }
  }
  attr {
    key: "dtype"
    value {
      type: DT_FLOAT
    }
  }
  attr {
    key: "value"
    value {
      tensor {
        dtype: DT_FLOAT
        tensor_shape {
          dim {
            size: 64
          }
        }
        float_val: 0.0
      }
    }
  }
}
node {
  name: "ENet/bottleneck1_0_prelu3alpha"
  op: "VariableV2"
  attr {
    key: "_class"
    value {
      list {
        s: "loc:@ENet/bottleneck1_0_prelu3alpha"
      }
    }
  }
  attr {
    key: "container"
    value {
      s: ""
    }
  }
  attr {
    key: "dtype"
    value {
      type: DT_FLOAT
    }
  }
  attr {
    key: "shape"
    value {
      shape {
        dim {
          size: 64
        }
      }
    }
  }
  attr {
    key: "shared_name"
    value {
      s: ""
    }
  }
}
node {
  name: "ENet/bottleneck1_0_prelu3alpha/Assign"
  op: "Assign"
  input: "ENet/bottleneck1_0_prelu3alpha"
  input: "ENet/bottleneck1_0_prelu3alpha/Initializer/Const"
  attr {
    key: "T"
    value {
      type: DT_FLOAT
    }
  }
  attr {
    key: "_class"
    value {
      list {
        s: "loc:@ENet/bottleneck1_0_prelu3alpha"
      }
    }
  }
  attr {
    key: "use_locking"
    value {
      b: true
    }
  }
  attr {
    key: "validate_shape"
    value {
      b: true
    }
  }
}
node {
  name: "ENet/bottleneck1_0_prelu3alpha/read"
  op: "Identity"
  input: "ENet/bottleneck1_0_prelu3alpha"
  attr {
    key: "T"
    value {
      type: DT_FLOAT
    }
  }
  attr {
    key: "_class"
    value {
      list {
        s: "loc:@ENet/bottleneck1_0_prelu3alpha"
      }
    }
  }
}
node {
  name: "ENet/Relu_3"
  op: "Relu"
  input: "ENet/bottleneck1_0_batch_norm3/FusedBatchNorm"
  attr {
    key: "T"
    value {
      type: DT_FLOAT
    }
  }
}
node {
  name: "ENet/Abs_3"
  op: "Abs"
  input: "ENet/bottleneck1_0_batch_norm3/FusedBatchNorm"
  attr {
    key: "T"
    value {
      type: DT_FLOAT
    }
  }
}
node {
  name: "ENet/sub_3"
  op: "Sub"
  input: "ENet/bottleneck1_0_batch_norm3/FusedBatchNorm"
  input: "ENet/Abs_3"
  attr {
    key: "T"
    value {
      type: DT_FLOAT
    }
  }
}
node {
  name: "ENet/mul_6"
  op: "Mul"
  input: "ENet/bottleneck1_0_prelu3alpha/read"
  input: "ENet/sub_3"
  attr {
    key: "T"
    value {
      type: DT_FLOAT
    }
  }
}
node {
  name: "ENet/mul_7/y"
  op: "Const"
  attr {
    key: "dtype"
    value {
      type: DT_FLOAT
    }
  }
  attr {
    key: "value"
    value {
      tensor {
        dtype: DT_FLOAT
        tensor_shape {
        }
        float_val: 0.5
      }
    }
  }
}
node {
  name: "ENet/mul_7"
  op: "Mul"
  input: "ENet/mul_6"
  input: "ENet/mul_7/y"
  attr {
    key: "T"
    value {
      type: DT_FLOAT
    }
  }
}
node {
  name: "ENet/add_3"
  op: "Add"
  input: "ENet/Relu_3"
  input: "ENet/mul_7"
  attr {
    key: "T"
    value {
      type: DT_FLOAT
    }
  }
}
node {
  name: "ENet/Const_1"
  op: "Const"
  attr {
    key: "dtype"
    value {
      type: DT_INT32
    }
  }
  attr {
    key: "value"
    value {
      tensor {
        dtype: DT_INT32
        tensor_shape {
          dim {
            size: 4
          }
        }
        tensor_content: "\001\000\000\000\001\000\000\000\001\000\000\000@\000\000\000"
      }
    }
  }
}
node {
  name: "ENet/bottleneck1_0_spatial_dropout/keep_prob"
  op: "Const"
  attr {
    key: "dtype"
    value {
      type: DT_FLOAT
    }
  }
  attr {
    key: "value"
    value {
      tensor {
        dtype: DT_FLOAT
        tensor_shape {
        }
        float_val: 0.990000009537
      }
    }
  }
}
node {
  name: "ENet/bottleneck1_0_spatial_dropout/random_uniform/min"
  op: "Const"
  attr {
    key: "dtype"
    value {
      type: DT_FLOAT
    }
  }
  attr {
    key: "value"
    value {
      tensor {
        dtype: DT_FLOAT
        tensor_shape {
        }
        float_val: 0.0
      }
    }
  }
}
node {
  name: "ENet/bottleneck1_0_spatial_dropout/random_uniform/max"
  op: "Const"
  attr {
    key: "dtype"
    value {
      type: DT_FLOAT
    }
  }
  attr {
    key: "value"
    value {
      tensor {
        dtype: DT_FLOAT
        tensor_shape {
        }
        float_val: 1.0
      }
    }
  }
}
node {
  name: "ENet/bottleneck1_0_spatial_dropout/random_uniform/RandomUniform"
  op: "RandomUniform"
  input: "ENet/Const_1"
  attr {
    key: "T"
    value {
      type: DT_INT32
    }
  }
  attr {
    key: "dtype"
    value {
      type: DT_FLOAT
    }
  }
  attr {
    key: "seed"
    value {
      i: 87654321
    }
  }
  attr {
    key: "seed2"
    value {
      i: 0
    }
  }
}
node {
  name: "ENet/bottleneck1_0_spatial_dropout/random_uniform/sub"
  op: "Sub"
  input: "ENet/bottleneck1_0_spatial_dropout/random_uniform/max"
  input: "ENet/bottleneck1_0_spatial_dropout/random_uniform/min"
  attr {
    key: "T"
    value {
      type: DT_FLOAT
    }
  }
}
node {
  name: "ENet/bottleneck1_0_spatial_dropout/random_uniform/mul"
  op: "Mul"
  input: "ENet/bottleneck1_0_spatial_dropout/random_uniform/RandomUniform"
  input: "ENet/bottleneck1_0_spatial_dropout/random_uniform/sub"
  attr {
    key: "T"
    value {
      type: DT_FLOAT
    }
  }
}
node {
  name: "ENet/bottleneck1_0_spatial_dropout/random_uniform"
  op: "Add"
  input: "ENet/bottleneck1_0_spatial_dropout/random_uniform/mul"
  input: "ENet/bottleneck1_0_spatial_dropout/random_uniform/min"
  attr {
    key: "T"
    value {
      type: DT_FLOAT
    }
  }
}
node {
  name: "ENet/bottleneck1_0_spatial_dropout/add"
  op: "Add"
  input: "ENet/bottleneck1_0_spatial_dropout/keep_prob"
  input: "ENet/bottleneck1_0_spatial_dropout/random_uniform"
  attr {
    key: "T"
    value {
      type: DT_FLOAT
    }
  }
}
node {
  name: "ENet/bottleneck1_0_spatial_dropout/Floor"
  op: "Floor"
  input: "ENet/bottleneck1_0_spatial_dropout/add"
  attr {
    key: "T"
    value {
      type: DT_FLOAT
    }
  }
}
node {
  name: "ENet/bottleneck1_0_spatial_dropout/div"
  op: "RealDiv"
  input: "ENet/add_3"
  input: "ENet/bottleneck1_0_spatial_dropout/keep_prob"
  attr {
    key: "T"
    value {
      type: DT_FLOAT
    }
  }
}
node {
  name: "ENet/bottleneck1_0_spatial_dropout/mul"
  op: "Mul"
  input: "ENet/bottleneck1_0_spatial_dropout/div"
  input: "ENet/bottleneck1_0_spatial_dropout/Floor"
  attr {
    key: "T"
    value {
      type: DT_FLOAT
    }
  }
}
node {
  name: "ENet/bottleneck1_0_add"
  op: "Add"
  input: "ENet/bottleneck1_0_spatial_dropout/mul"
  input: "ENet/bottleneck1_0_main_padding"
  attr {
    key: "T"
    value {
      type: DT_FLOAT
    }
  }
}
node {
  name: "ENet/bottleneck1_0_last_prelualpha/Initializer/Const"
  op: "Const"
  attr {
    key: "_class"
    value {
      list {
        s: "loc:@ENet/bottleneck1_0_last_prelualpha"
      }
    }
  }
  attr {
    key: "dtype"
    value {
      type: DT_FLOAT
    }
  }
  attr {
    key: "value"
    value {
      tensor {
        dtype: DT_FLOAT
        tensor_shape {
          dim {
            size: 64
          }
        }
        float_val: 0.0
      }
    }
  }
}
node {
  name: "ENet/bottleneck1_0_last_prelualpha"
  op: "VariableV2"
  attr {
    key: "_class"
    value {
      list {
        s: "loc:@ENet/bottleneck1_0_last_prelualpha"
      }
    }
  }
  attr {
    key: "container"
    value {
      s: ""
    }
  }
  attr {
    key: "dtype"
    value {
      type: DT_FLOAT
    }
  }
  attr {
    key: "shape"
    value {
      shape {
        dim {
          size: 64
        }
      }
    }
  }
  attr {
    key: "shared_name"
    value {
      s: ""
    }
  }
}
node {
  name: "ENet/bottleneck1_0_last_prelualpha/Assign"
  op: "Assign"
  input: "ENet/bottleneck1_0_last_prelualpha"
  input: "ENet/bottleneck1_0_last_prelualpha/Initializer/Const"
  attr {
    key: "T"
    value {
      type: DT_FLOAT
    }
  }
  attr {
    key: "_class"
    value {
      list {
        s: "loc:@ENet/bottleneck1_0_last_prelualpha"
      }
    }
  }
  attr {
    key: "use_locking"
    value {
      b: true
    }
  }
  attr {
    key: "validate_shape"
    value {
      b: true
    }
  }
}
node {
  name: "ENet/bottleneck1_0_last_prelualpha/read"
  op: "Identity"
  input: "ENet/bottleneck1_0_last_prelualpha"
  attr {
    key: "T"
    value {
      type: DT_FLOAT
    }
  }
  attr {
    key: "_class"
    value {
      list {
        s: "loc:@ENet/bottleneck1_0_last_prelualpha"
      }
    }
  }
}
node {
  name: "ENet/Relu_4"
  op: "Relu"
  input: "ENet/bottleneck1_0_add"
  attr {
    key: "T"
    value {
      type: DT_FLOAT
    }
  }
}
node {
  name: "ENet/Abs_4"
  op: "Abs"
  input: "ENet/bottleneck1_0_add"
  attr {
    key: "T"
    value {
      type: DT_FLOAT
    }
  }
}
node {
  name: "ENet/sub_4"
  op: "Sub"
  input: "ENet/bottleneck1_0_add"
  input: "ENet/Abs_4"
  attr {
    key: "T"
    value {
      type: DT_FLOAT
    }
  }
}
node {
  name: "ENet/mul_8"
  op: "Mul"
  input: "ENet/bottleneck1_0_last_prelualpha/read"
  input: "ENet/sub_4"
  attr {
    key: "T"
    value {
      type: DT_FLOAT
    }
  }
}
node {
  name: "ENet/mul_9/y"
  op: "Const"
  attr {
    key: "dtype"
    value {
      type: DT_FLOAT
    }
  }
  attr {
    key: "value"
    value {
      tensor {
        dtype: DT_FLOAT
        tensor_shape {
        }
        float_val: 0.5
      }
    }
  }
}
node {
  name: "ENet/mul_9"
  op: "Mul"
  input: "ENet/mul_8"
  input: "ENet/mul_9/y"
  attr {
    key: "T"
    value {
      type: DT_FLOAT
    }
  }
}
node {
  name: "ENet/add_4"
  op: "Add"
  input: "ENet/Relu_4"
  input: "ENet/mul_9"
  attr {
    key: "T"
    value {
      type: DT_FLOAT
    }
  }
}
node {
  name: "ENet/bottleneck1_1_conv1/weights/Initializer/random_uniform/shape"
  op: "Const"
  attr {
    key: "_class"
    value {
      list {
        s: "loc:@ENet/bottleneck1_1_conv1/weights"
      }
    }
  }
  attr {
    key: "dtype"
    value {
      type: DT_INT32
    }
  }
  attr {
    key: "value"
    value {
      tensor {
        dtype: DT_INT32
        tensor_shape {
          dim {
            size: 4
          }
        }
        tensor_content: "\001\000\000\000\001\000\000\000@\000\000\000\020\000\000\000"
      }
    }
  }
}
node {
  name: "ENet/bottleneck1_1_conv1/weights/Initializer/random_uniform/min"
  op: "Const"
  attr {
    key: "_class"
    value {
      list {
        s: "loc:@ENet/bottleneck1_1_conv1/weights"
      }
    }
  }
  attr {
    key: "dtype"
    value {
      type: DT_FLOAT
    }
  }
  attr {
    key: "value"
    value {
      tensor {
        dtype: DT_FLOAT
        tensor_shape {
        }
        float_val: -0.273861289024
      }
    }
  }
}
node {
  name: "ENet/bottleneck1_1_conv1/weights/Initializer/random_uniform/max"
  op: "Const"
  attr {
    key: "_class"
    value {
      list {
        s: "loc:@ENet/bottleneck1_1_conv1/weights"
      }
    }
  }
  attr {
    key: "dtype"
    value {
      type: DT_FLOAT
    }
  }
  attr {
    key: "value"
    value {
      tensor {
        dtype: DT_FLOAT
        tensor_shape {
        }
        float_val: 0.273861289024
      }
    }
  }
}
node {
  name: "ENet/bottleneck1_1_conv1/weights/Initializer/random_uniform/RandomUniform"
  op: "RandomUniform"
  input: "ENet/bottleneck1_1_conv1/weights/Initializer/random_uniform/shape"
  attr {
    key: "T"
    value {
      type: DT_INT32
    }
  }
  attr {
    key: "_class"
    value {
      list {
        s: "loc:@ENet/bottleneck1_1_conv1/weights"
      }
    }
  }
  attr {
    key: "dtype"
    value {
      type: DT_FLOAT
    }
  }
  attr {
    key: "seed"
    value {
      i: 0
    }
  }
  attr {
    key: "seed2"
    value {
      i: 0
    }
  }
}
node {
  name: "ENet/bottleneck1_1_conv1/weights/Initializer/random_uniform/sub"
  op: "Sub"
  input: "ENet/bottleneck1_1_conv1/weights/Initializer/random_uniform/max"
  input: "ENet/bottleneck1_1_conv1/weights/Initializer/random_uniform/min"
  attr {
    key: "T"
    value {
      type: DT_FLOAT
    }
  }
  attr {
    key: "_class"
    value {
      list {
        s: "loc:@ENet/bottleneck1_1_conv1/weights"
      }
    }
  }
}
node {
  name: "ENet/bottleneck1_1_conv1/weights/Initializer/random_uniform/mul"
  op: "Mul"
  input: "ENet/bottleneck1_1_conv1/weights/Initializer/random_uniform/RandomUniform"
  input: "ENet/bottleneck1_1_conv1/weights/Initializer/random_uniform/sub"
  attr {
    key: "T"
    value {
      type: DT_FLOAT
    }
  }
  attr {
    key: "_class"
    value {
      list {
        s: "loc:@ENet/bottleneck1_1_conv1/weights"
      }
    }
  }
}
node {
  name: "ENet/bottleneck1_1_conv1/weights/Initializer/random_uniform"
  op: "Add"
  input: "ENet/bottleneck1_1_conv1/weights/Initializer/random_uniform/mul"
  input: "ENet/bottleneck1_1_conv1/weights/Initializer/random_uniform/min"
  attr {
    key: "T"
    value {
      type: DT_FLOAT
    }
  }
  attr {
    key: "_class"
    value {
      list {
        s: "loc:@ENet/bottleneck1_1_conv1/weights"
      }
    }
  }
}
node {
  name: "ENet/bottleneck1_1_conv1/weights"
  op: "VariableV2"
  attr {
    key: "_class"
    value {
      list {
        s: "loc:@ENet/bottleneck1_1_conv1/weights"
      }
    }
  }
  attr {
    key: "container"
    value {
      s: ""
    }
  }
  attr {
    key: "dtype"
    value {
      type: DT_FLOAT
    }
  }
  attr {
    key: "shape"
    value {
      shape {
        dim {
          size: 1
        }
        dim {
          size: 1
        }
        dim {
          size: 64
        }
        dim {
          size: 16
        }
      }
    }
  }
  attr {
    key: "shared_name"
    value {
      s: ""
    }
  }
}
node {
  name: "ENet/bottleneck1_1_conv1/weights/Assign"
  op: "Assign"
  input: "ENet/bottleneck1_1_conv1/weights"
  input: "ENet/bottleneck1_1_conv1/weights/Initializer/random_uniform"
  attr {
    key: "T"
    value {
      type: DT_FLOAT
    }
  }
  attr {
    key: "_class"
    value {
      list {
        s: "loc:@ENet/bottleneck1_1_conv1/weights"
      }
    }
  }
  attr {
    key: "use_locking"
    value {
      b: true
    }
  }
  attr {
    key: "validate_shape"
    value {
      b: true
    }
  }
}
node {
  name: "ENet/bottleneck1_1_conv1/weights/read"
  op: "Identity"
  input: "ENet/bottleneck1_1_conv1/weights"
  attr {
    key: "T"
    value {
      type: DT_FLOAT
    }
  }
  attr {
    key: "_class"
    value {
      list {
        s: "loc:@ENet/bottleneck1_1_conv1/weights"
      }
    }
  }
}
node {
  name: "ENet/bottleneck1_1_conv1/kernel/Regularizer/l2_regularizer/scale"
  op: "Const"
  attr {
    key: "_class"
    value {
      list {
        s: "loc:@ENet/bottleneck1_1_conv1/weights"
      }
    }
  }
  attr {
    key: "dtype"
    value {
      type: DT_FLOAT
    }
  }
  attr {
    key: "value"
    value {
      tensor {
        dtype: DT_FLOAT
        tensor_shape {
        }
        float_val: 0.000199999994948
      }
    }
  }
}
node {
  name: "ENet/bottleneck1_1_conv1/kernel/Regularizer/l2_regularizer/L2Loss"
  op: "L2Loss"
  input: "ENet/bottleneck1_1_conv1/weights/read"
  attr {
    key: "T"
    value {
      type: DT_FLOAT
    }
  }
  attr {
    key: "_class"
    value {
      list {
        s: "loc:@ENet/bottleneck1_1_conv1/weights"
      }
    }
  }
}
node {
  name: "ENet/bottleneck1_1_conv1/kernel/Regularizer/l2_regularizer"
  op: "Mul"
  input: "ENet/bottleneck1_1_conv1/kernel/Regularizer/l2_regularizer/scale"
  input: "ENet/bottleneck1_1_conv1/kernel/Regularizer/l2_regularizer/L2Loss"
  attr {
    key: "T"
    value {
      type: DT_FLOAT
    }
  }
  attr {
    key: "_class"
    value {
      list {
        s: "loc:@ENet/bottleneck1_1_conv1/weights"
      }
    }
  }
}
node {
  name: "ENet/bottleneck1_1_conv1/biases/Initializer/zeros"
  op: "Const"
  attr {
    key: "_class"
    value {
      list {
        s: "loc:@ENet/bottleneck1_1_conv1/biases"
      }
    }
  }
  attr {
    key: "dtype"
    value {
      type: DT_FLOAT
    }
  }
  attr {
    key: "value"
    value {
      tensor {
        dtype: DT_FLOAT
        tensor_shape {
          dim {
            size: 16
          }
        }
        float_val: 0.0
      }
    }
  }
}
node {
  name: "ENet/bottleneck1_1_conv1/biases"
  op: "VariableV2"
  attr {
    key: "_class"
    value {
      list {
        s: "loc:@ENet/bottleneck1_1_conv1/biases"
      }
    }
  }
  attr {
    key: "container"
    value {
      s: ""
    }
  }
  attr {
    key: "dtype"
    value {
      type: DT_FLOAT
    }
  }
  attr {
    key: "shape"
    value {
      shape {
        dim {
          size: 16
        }
      }
    }
  }
  attr {
    key: "shared_name"
    value {
      s: ""
    }
  }
}
node {
  name: "ENet/bottleneck1_1_conv1/biases/Assign"
  op: "Assign"
  input: "ENet/bottleneck1_1_conv1/biases"
  input: "ENet/bottleneck1_1_conv1/biases/Initializer/zeros"
  attr {
    key: "T"
    value {
      type: DT_FLOAT
    }
  }
  attr {
    key: "_class"
    value {
      list {
        s: "loc:@ENet/bottleneck1_1_conv1/biases"
      }
    }
  }
  attr {
    key: "use_locking"
    value {
      b: true
    }
  }
  attr {
    key: "validate_shape"
    value {
      b: true
    }
  }
}
node {
  name: "ENet/bottleneck1_1_conv1/biases/read"
  op: "Identity"
  input: "ENet/bottleneck1_1_conv1/biases"
  attr {
    key: "T"
    value {
      type: DT_FLOAT
    }
  }
  attr {
    key: "_class"
    value {
      list {
        s: "loc:@ENet/bottleneck1_1_conv1/biases"
      }
    }
  }
}
node {
  name: "ENet/bottleneck1_1_conv1/bias/Regularizer/l2_regularizer/scale"
  op: "Const"
  attr {
    key: "_class"
    value {
      list {
        s: "loc:@ENet/bottleneck1_1_conv1/biases"
      }
    }
  }
  attr {
    key: "dtype"
    value {
      type: DT_FLOAT
    }
  }
  attr {
    key: "value"
    value {
      tensor {
        dtype: DT_FLOAT
        tensor_shape {
        }
        float_val: 0.000199999994948
      }
    }
  }
}
node {
  name: "ENet/bottleneck1_1_conv1/bias/Regularizer/l2_regularizer/L2Loss"
  op: "L2Loss"
  input: "ENet/bottleneck1_1_conv1/biases/read"
  attr {
    key: "T"
    value {
      type: DT_FLOAT
    }
  }
  attr {
    key: "_class"
    value {
      list {
        s: "loc:@ENet/bottleneck1_1_conv1/biases"
      }
    }
  }
}
node {
  name: "ENet/bottleneck1_1_conv1/bias/Regularizer/l2_regularizer"
  op: "Mul"
  input: "ENet/bottleneck1_1_conv1/bias/Regularizer/l2_regularizer/scale"
  input: "ENet/bottleneck1_1_conv1/bias/Regularizer/l2_regularizer/L2Loss"
  attr {
    key: "T"
    value {
      type: DT_FLOAT
    }
  }
  attr {
    key: "_class"
    value {
      list {
        s: "loc:@ENet/bottleneck1_1_conv1/biases"
      }
    }
  }
}
node {
  name: "ENet/bottleneck1_1_conv1/dilation_rate"
  op: "Const"
  attr {
    key: "dtype"
    value {
      type: DT_INT32
    }
  }
  attr {
    key: "value"
    value {
      tensor {
        dtype: DT_INT32
        tensor_shape {
          dim {
            size: 2
          }
        }
        tensor_content: "\001\000\000\000\001\000\000\000"
      }
    }
  }
}
node {
  name: "ENet/bottleneck1_1_conv1/Conv2D"
  op: "Conv2D"
  input: "ENet/add_4"
  input: "ENet/bottleneck1_1_conv1/weights/read"
  attr {
    key: "T"
    value {
      type: DT_FLOAT
    }
  }
  attr {
    key: "data_format"
    value {
      s: "NHWC"
    }
  }
  attr {
    key: "dilations"
    value {
      list {
        i: 1
        i: 1
        i: 1
        i: 1
      }
    }
  }
  attr {
    key: "padding"
    value {
      s: "SAME"
    }
  }
  attr {
    key: "strides"
    value {
      list {
        i: 1
        i: 1
        i: 1
        i: 1
      }
    }
  }
  attr {
    key: "use_cudnn_on_gpu"
    value {
      b: true
    }
  }
}
node {
  name: "ENet/bottleneck1_1_conv1/BiasAdd"
  op: "BiasAdd"
  input: "ENet/bottleneck1_1_conv1/Conv2D"
  input: "ENet/bottleneck1_1_conv1/biases/read"
  attr {
    key: "T"
    value {
      type: DT_FLOAT
    }
  }
  attr {
    key: "data_format"
    value {
      s: "NHWC"
    }
  }
}
node {
  name: "ENet/bottleneck1_1_batch_norm1/Const"
  op: "Const"
  attr {
    key: "dtype"
    value {
      type: DT_FLOAT
    }
  }
  attr {
    key: "value"
    value {
      tensor {
        dtype: DT_FLOAT
        tensor_shape {
          dim {
            size: 16
          }
        }
        float_val: 1.0
      }
    }
  }
}
node {
  name: "ENet/bottleneck1_1_batch_norm1/beta/Initializer/zeros"
  op: "Const"
  attr {
    key: "_class"
    value {
      list {
        s: "loc:@ENet/bottleneck1_1_batch_norm1/beta"
      }
    }
  }
  attr {
    key: "dtype"
    value {
      type: DT_FLOAT
    }
  }
  attr {
    key: "value"
    value {
      tensor {
        dtype: DT_FLOAT
        tensor_shape {
          dim {
            size: 16
          }
        }
        float_val: 0.0
      }
    }
  }
}
node {
  name: "ENet/bottleneck1_1_batch_norm1/beta"
  op: "VariableV2"
  attr {
    key: "_class"
    value {
      list {
        s: "loc:@ENet/bottleneck1_1_batch_norm1/beta"
      }
    }
  }
  attr {
    key: "container"
    value {
      s: ""
    }
  }
  attr {
    key: "dtype"
    value {
      type: DT_FLOAT
    }
  }
  attr {
    key: "shape"
    value {
      shape {
        dim {
          size: 16
        }
      }
    }
  }
  attr {
    key: "shared_name"
    value {
      s: ""
    }
  }
}
node {
  name: "ENet/bottleneck1_1_batch_norm1/beta/Assign"
  op: "Assign"
  input: "ENet/bottleneck1_1_batch_norm1/beta"
  input: "ENet/bottleneck1_1_batch_norm1/beta/Initializer/zeros"
  attr {
    key: "T"
    value {
      type: DT_FLOAT
    }
  }
  attr {
    key: "_class"
    value {
      list {
        s: "loc:@ENet/bottleneck1_1_batch_norm1/beta"
      }
    }
  }
  attr {
    key: "use_locking"
    value {
      b: true
    }
  }
  attr {
    key: "validate_shape"
    value {
      b: true
    }
  }
}
node {
  name: "ENet/bottleneck1_1_batch_norm1/beta/read"
  op: "Identity"
  input: "ENet/bottleneck1_1_batch_norm1/beta"
  attr {
    key: "T"
    value {
      type: DT_FLOAT
    }
  }
  attr {
    key: "_class"
    value {
      list {
        s: "loc:@ENet/bottleneck1_1_batch_norm1/beta"
      }
    }
  }
}
node {
  name: "ENet/bottleneck1_1_batch_norm1/moving_mean/Initializer/zeros"
  op: "Const"
  attr {
    key: "_class"
    value {
      list {
        s: "loc:@ENet/bottleneck1_1_batch_norm1/moving_mean"
      }
    }
  }
  attr {
    key: "dtype"
    value {
      type: DT_FLOAT
    }
  }
  attr {
    key: "value"
    value {
      tensor {
        dtype: DT_FLOAT
        tensor_shape {
          dim {
            size: 16
          }
        }
        float_val: 0.0
      }
    }
  }
}
node {
  name: "ENet/bottleneck1_1_batch_norm1/moving_mean"
  op: "VariableV2"
  attr {
    key: "_class"
    value {
      list {
        s: "loc:@ENet/bottleneck1_1_batch_norm1/moving_mean"
      }
    }
  }
  attr {
    key: "container"
    value {
      s: ""
    }
  }
  attr {
    key: "dtype"
    value {
      type: DT_FLOAT
    }
  }
  attr {
    key: "shape"
    value {
      shape {
        dim {
          size: 16
        }
      }
    }
  }
  attr {
    key: "shared_name"
    value {
      s: ""
    }
  }
}
node {
  name: "ENet/bottleneck1_1_batch_norm1/moving_mean/Assign"
  op: "Assign"
  input: "ENet/bottleneck1_1_batch_norm1/moving_mean"
  input: "ENet/bottleneck1_1_batch_norm1/moving_mean/Initializer/zeros"
  attr {
    key: "T"
    value {
      type: DT_FLOAT
    }
  }
  attr {
    key: "_class"
    value {
      list {
        s: "loc:@ENet/bottleneck1_1_batch_norm1/moving_mean"
      }
    }
  }
  attr {
    key: "use_locking"
    value {
      b: true
    }
  }
  attr {
    key: "validate_shape"
    value {
      b: true
    }
  }
}
node {
  name: "ENet/bottleneck1_1_batch_norm1/moving_mean/read"
  op: "Identity"
  input: "ENet/bottleneck1_1_batch_norm1/moving_mean"
  attr {
    key: "T"
    value {
      type: DT_FLOAT
    }
  }
  attr {
    key: "_class"
    value {
      list {
        s: "loc:@ENet/bottleneck1_1_batch_norm1/moving_mean"
      }
    }
  }
}
node {
  name: "ENet/bottleneck1_1_batch_norm1/moving_variance/Initializer/ones"
  op: "Const"
  attr {
    key: "_class"
    value {
      list {
        s: "loc:@ENet/bottleneck1_1_batch_norm1/moving_variance"
      }
    }
  }
  attr {
    key: "dtype"
    value {
      type: DT_FLOAT
    }
  }
  attr {
    key: "value"
    value {
      tensor {
        dtype: DT_FLOAT
        tensor_shape {
          dim {
            size: 16
          }
        }
        float_val: 1.0
      }
    }
  }
}
node {
  name: "ENet/bottleneck1_1_batch_norm1/moving_variance"
  op: "VariableV2"
  attr {
    key: "_class"
    value {
      list {
        s: "loc:@ENet/bottleneck1_1_batch_norm1/moving_variance"
      }
    }
  }
  attr {
    key: "container"
    value {
      s: ""
    }
  }
  attr {
    key: "dtype"
    value {
      type: DT_FLOAT
    }
  }
  attr {
    key: "shape"
    value {
      shape {
        dim {
          size: 16
        }
      }
    }
  }
  attr {
    key: "shared_name"
    value {
      s: ""
    }
  }
}
node {
  name: "ENet/bottleneck1_1_batch_norm1/moving_variance/Assign"
  op: "Assign"
  input: "ENet/bottleneck1_1_batch_norm1/moving_variance"
  input: "ENet/bottleneck1_1_batch_norm1/moving_variance/Initializer/ones"
  attr {
    key: "T"
    value {
      type: DT_FLOAT
    }
  }
  attr {
    key: "_class"
    value {
      list {
        s: "loc:@ENet/bottleneck1_1_batch_norm1/moving_variance"
      }
    }
  }
  attr {
    key: "use_locking"
    value {
      b: true
    }
  }
  attr {
    key: "validate_shape"
    value {
      b: true
    }
  }
}
node {
  name: "ENet/bottleneck1_1_batch_norm1/moving_variance/read"
  op: "Identity"
  input: "ENet/bottleneck1_1_batch_norm1/moving_variance"
  attr {
    key: "T"
    value {
      type: DT_FLOAT
    }
  }
  attr {
    key: "_class"
    value {
      list {
        s: "loc:@ENet/bottleneck1_1_batch_norm1/moving_variance"
      }
    }
  }
}
node {
  name: "ENet/bottleneck1_1_batch_norm1/FusedBatchNorm"
  op: "FusedBatchNorm"
  input: "ENet/bottleneck1_1_conv1/BiasAdd"
  input: "ENet/bottleneck1_1_batch_norm1/Const"
  input: "ENet/bottleneck1_1_batch_norm1/beta/read"
  input: "ENet/bottleneck1_1_batch_norm1/moving_mean/read"
  input: "ENet/bottleneck1_1_batch_norm1/moving_variance/read"
  attr {
    key: "T"
    value {
      type: DT_FLOAT
    }
  }
  attr {
    key: "data_format"
    value {
      s: "NHWC"
    }
  }
  attr {
    key: "epsilon"
    value {
      f: 0.0010000000475
    }
  }
  attr {
    key: "is_training"
    value {
      b: false
    }
  }
}
node {
  name: "ENet/bottleneck1_1_batch_norm1/Const_1"
  op: "Const"
  attr {
    key: "dtype"
    value {
      type: DT_FLOAT
    }
  }
  attr {
    key: "value"
    value {
      tensor {
        dtype: DT_FLOAT
        tensor_shape {
        }
        float_val: 0.10000000149
      }
    }
  }
}
node {
  name: "ENet/bottleneck1_1_prelu1alpha/Initializer/Const"
  op: "Const"
  attr {
    key: "_class"
    value {
      list {
        s: "loc:@ENet/bottleneck1_1_prelu1alpha"
      }
    }
  }
  attr {
    key: "dtype"
    value {
      type: DT_FLOAT
    }
  }
  attr {
    key: "value"
    value {
      tensor {
        dtype: DT_FLOAT
        tensor_shape {
          dim {
            size: 16
          }
        }
        float_val: 0.0
      }
    }
  }
}
node {
  name: "ENet/bottleneck1_1_prelu1alpha"
  op: "VariableV2"
  attr {
    key: "_class"
    value {
      list {
        s: "loc:@ENet/bottleneck1_1_prelu1alpha"
      }
    }
  }
  attr {
    key: "container"
    value {
      s: ""
    }
  }
  attr {
    key: "dtype"
    value {
      type: DT_FLOAT
    }
  }
  attr {
    key: "shape"
    value {
      shape {
        dim {
          size: 16
        }
      }
    }
  }
  attr {
    key: "shared_name"
    value {
      s: ""
    }
  }
}
node {
  name: "ENet/bottleneck1_1_prelu1alpha/Assign"
  op: "Assign"
  input: "ENet/bottleneck1_1_prelu1alpha"
  input: "ENet/bottleneck1_1_prelu1alpha/Initializer/Const"
  attr {
    key: "T"
    value {
      type: DT_FLOAT
    }
  }
  attr {
    key: "_class"
    value {
      list {
        s: "loc:@ENet/bottleneck1_1_prelu1alpha"
      }
    }
  }
  attr {
    key: "use_locking"
    value {
      b: true
    }
  }
  attr {
    key: "validate_shape"
    value {
      b: true
    }
  }
}
node {
  name: "ENet/bottleneck1_1_prelu1alpha/read"
  op: "Identity"
  input: "ENet/bottleneck1_1_prelu1alpha"
  attr {
    key: "T"
    value {
      type: DT_FLOAT
    }
  }
  attr {
    key: "_class"
    value {
      list {
        s: "loc:@ENet/bottleneck1_1_prelu1alpha"
      }
    }
  }
}
node {
  name: "ENet/Relu_5"
  op: "Relu"
  input: "ENet/bottleneck1_1_batch_norm1/FusedBatchNorm"
  attr {
    key: "T"
    value {
      type: DT_FLOAT
    }
  }
}
node {
  name: "ENet/Abs_5"
  op: "Abs"
  input: "ENet/bottleneck1_1_batch_norm1/FusedBatchNorm"
  attr {
    key: "T"
    value {
      type: DT_FLOAT
    }
  }
}
node {
  name: "ENet/sub_5"
  op: "Sub"
  input: "ENet/bottleneck1_1_batch_norm1/FusedBatchNorm"
  input: "ENet/Abs_5"
  attr {
    key: "T"
    value {
      type: DT_FLOAT
    }
  }
}
node {
  name: "ENet/mul_10"
  op: "Mul"
  input: "ENet/bottleneck1_1_prelu1alpha/read"
  input: "ENet/sub_5"
  attr {
    key: "T"
    value {
      type: DT_FLOAT
    }
  }
}
node {
  name: "ENet/mul_11/y"
  op: "Const"
  attr {
    key: "dtype"
    value {
      type: DT_FLOAT
    }
  }
  attr {
    key: "value"
    value {
      tensor {
        dtype: DT_FLOAT
        tensor_shape {
        }
        float_val: 0.5
      }
    }
  }
}
node {
  name: "ENet/mul_11"
  op: "Mul"
  input: "ENet/mul_10"
  input: "ENet/mul_11/y"
  attr {
    key: "T"
    value {
      type: DT_FLOAT
    }
  }
}
node {
  name: "ENet/add_5"
  op: "Add"
  input: "ENet/Relu_5"
  input: "ENet/mul_11"
  attr {
    key: "T"
    value {
      type: DT_FLOAT
    }
  }
}
node {
  name: "ENet/bottleneck1_1_conv2/weights/Initializer/random_uniform/shape"
  op: "Const"
  attr {
    key: "_class"
    value {
      list {
        s: "loc:@ENet/bottleneck1_1_conv2/weights"
      }
    }
  }
  attr {
    key: "dtype"
    value {
      type: DT_INT32
    }
  }
  attr {
    key: "value"
    value {
      tensor {
        dtype: DT_INT32
        tensor_shape {
          dim {
            size: 4
          }
        }
        tensor_content: "\003\000\000\000\003\000\000\000\020\000\000\000\020\000\000\000"
      }
    }
  }
}
node {
  name: "ENet/bottleneck1_1_conv2/weights/Initializer/random_uniform/min"
  op: "Const"
  attr {
    key: "_class"
    value {
      list {
        s: "loc:@ENet/bottleneck1_1_conv2/weights"
      }
    }
  }
  attr {
    key: "dtype"
    value {
      type: DT_FLOAT
    }
  }
  attr {
    key: "value"
    value {
      tensor {
        dtype: DT_FLOAT
        tensor_shape {
        }
        float_val: -0.144337564707
      }
    }
  }
}
node {
  name: "ENet/bottleneck1_1_conv2/weights/Initializer/random_uniform/max"
  op: "Const"
  attr {
    key: "_class"
    value {
      list {
        s: "loc:@ENet/bottleneck1_1_conv2/weights"
      }
    }
  }
  attr {
    key: "dtype"
    value {
      type: DT_FLOAT
    }
  }
  attr {
    key: "value"
    value {
      tensor {
        dtype: DT_FLOAT
        tensor_shape {
        }
        float_val: 0.144337564707
      }
    }
  }
}
node {
  name: "ENet/bottleneck1_1_conv2/weights/Initializer/random_uniform/RandomUniform"
  op: "RandomUniform"
  input: "ENet/bottleneck1_1_conv2/weights/Initializer/random_uniform/shape"
  attr {
    key: "T"
    value {
      type: DT_INT32
    }
  }
  attr {
    key: "_class"
    value {
      list {
        s: "loc:@ENet/bottleneck1_1_conv2/weights"
      }
    }
  }
  attr {
    key: "dtype"
    value {
      type: DT_FLOAT
    }
  }
  attr {
    key: "seed"
    value {
      i: 0
    }
  }
  attr {
    key: "seed2"
    value {
      i: 0
    }
  }
}
node {
  name: "ENet/bottleneck1_1_conv2/weights/Initializer/random_uniform/sub"
  op: "Sub"
  input: "ENet/bottleneck1_1_conv2/weights/Initializer/random_uniform/max"
  input: "ENet/bottleneck1_1_conv2/weights/Initializer/random_uniform/min"
  attr {
    key: "T"
    value {
      type: DT_FLOAT
    }
  }
  attr {
    key: "_class"
    value {
      list {
        s: "loc:@ENet/bottleneck1_1_conv2/weights"
      }
    }
  }
}
node {
  name: "ENet/bottleneck1_1_conv2/weights/Initializer/random_uniform/mul"
  op: "Mul"
  input: "ENet/bottleneck1_1_conv2/weights/Initializer/random_uniform/RandomUniform"
  input: "ENet/bottleneck1_1_conv2/weights/Initializer/random_uniform/sub"
  attr {
    key: "T"
    value {
      type: DT_FLOAT
    }
  }
  attr {
    key: "_class"
    value {
      list {
        s: "loc:@ENet/bottleneck1_1_conv2/weights"
      }
    }
  }
}
node {
  name: "ENet/bottleneck1_1_conv2/weights/Initializer/random_uniform"
  op: "Add"
  input: "ENet/bottleneck1_1_conv2/weights/Initializer/random_uniform/mul"
  input: "ENet/bottleneck1_1_conv2/weights/Initializer/random_uniform/min"
  attr {
    key: "T"
    value {
      type: DT_FLOAT
    }
  }
  attr {
    key: "_class"
    value {
      list {
        s: "loc:@ENet/bottleneck1_1_conv2/weights"
      }
    }
  }
}
node {
  name: "ENet/bottleneck1_1_conv2/weights"
  op: "VariableV2"
  attr {
    key: "_class"
    value {
      list {
        s: "loc:@ENet/bottleneck1_1_conv2/weights"
      }
    }
  }
  attr {
    key: "container"
    value {
      s: ""
    }
  }
  attr {
    key: "dtype"
    value {
      type: DT_FLOAT
    }
  }
  attr {
    key: "shape"
    value {
      shape {
        dim {
          size: 3
        }
        dim {
          size: 3
        }
        dim {
          size: 16
        }
        dim {
          size: 16
        }
      }
    }
  }
  attr {
    key: "shared_name"
    value {
      s: ""
    }
  }
}
node {
  name: "ENet/bottleneck1_1_conv2/weights/Assign"
  op: "Assign"
  input: "ENet/bottleneck1_1_conv2/weights"
  input: "ENet/bottleneck1_1_conv2/weights/Initializer/random_uniform"
  attr {
    key: "T"
    value {
      type: DT_FLOAT
    }
  }
  attr {
    key: "_class"
    value {
      list {
        s: "loc:@ENet/bottleneck1_1_conv2/weights"
      }
    }
  }
  attr {
    key: "use_locking"
    value {
      b: true
    }
  }
  attr {
    key: "validate_shape"
    value {
      b: true
    }
  }
}
node {
  name: "ENet/bottleneck1_1_conv2/weights/read"
  op: "Identity"
  input: "ENet/bottleneck1_1_conv2/weights"
  attr {
    key: "T"
    value {
      type: DT_FLOAT
    }
  }
  attr {
    key: "_class"
    value {
      list {
        s: "loc:@ENet/bottleneck1_1_conv2/weights"
      }
    }
  }
}
node {
  name: "ENet/bottleneck1_1_conv2/kernel/Regularizer/l2_regularizer/scale"
  op: "Const"
  attr {
    key: "_class"
    value {
      list {
        s: "loc:@ENet/bottleneck1_1_conv2/weights"
      }
    }
  }
  attr {
    key: "dtype"
    value {
      type: DT_FLOAT
    }
  }
  attr {
    key: "value"
    value {
      tensor {
        dtype: DT_FLOAT
        tensor_shape {
        }
        float_val: 0.000199999994948
      }
    }
  }
}
node {
  name: "ENet/bottleneck1_1_conv2/kernel/Regularizer/l2_regularizer/L2Loss"
  op: "L2Loss"
  input: "ENet/bottleneck1_1_conv2/weights/read"
  attr {
    key: "T"
    value {
      type: DT_FLOAT
    }
  }
  attr {
    key: "_class"
    value {
      list {
        s: "loc:@ENet/bottleneck1_1_conv2/weights"
      }
    }
  }
}
node {
  name: "ENet/bottleneck1_1_conv2/kernel/Regularizer/l2_regularizer"
  op: "Mul"
  input: "ENet/bottleneck1_1_conv2/kernel/Regularizer/l2_regularizer/scale"
  input: "ENet/bottleneck1_1_conv2/kernel/Regularizer/l2_regularizer/L2Loss"
  attr {
    key: "T"
    value {
      type: DT_FLOAT
    }
  }
  attr {
    key: "_class"
    value {
      list {
        s: "loc:@ENet/bottleneck1_1_conv2/weights"
      }
    }
  }
}
node {
  name: "ENet/bottleneck1_1_conv2/biases/Initializer/zeros"
  op: "Const"
  attr {
    key: "_class"
    value {
      list {
        s: "loc:@ENet/bottleneck1_1_conv2/biases"
      }
    }
  }
  attr {
    key: "dtype"
    value {
      type: DT_FLOAT
    }
  }
  attr {
    key: "value"
    value {
      tensor {
        dtype: DT_FLOAT
        tensor_shape {
          dim {
            size: 16
          }
        }
        float_val: 0.0
      }
    }
  }
}
node {
  name: "ENet/bottleneck1_1_conv2/biases"
  op: "VariableV2"
  attr {
    key: "_class"
    value {
      list {
        s: "loc:@ENet/bottleneck1_1_conv2/biases"
      }
    }
  }
  attr {
    key: "container"
    value {
      s: ""
    }
  }
  attr {
    key: "dtype"
    value {
      type: DT_FLOAT
    }
  }
  attr {
    key: "shape"
    value {
      shape {
        dim {
          size: 16
        }
      }
    }
  }
  attr {
    key: "shared_name"
    value {
      s: ""
    }
  }
}
node {
  name: "ENet/bottleneck1_1_conv2/biases/Assign"
  op: "Assign"
  input: "ENet/bottleneck1_1_conv2/biases"
  input: "ENet/bottleneck1_1_conv2/biases/Initializer/zeros"
  attr {
    key: "T"
    value {
      type: DT_FLOAT
    }
  }
  attr {
    key: "_class"
    value {
      list {
        s: "loc:@ENet/bottleneck1_1_conv2/biases"
      }
    }
  }
  attr {
    key: "use_locking"
    value {
      b: true
    }
  }
  attr {
    key: "validate_shape"
    value {
      b: true
    }
  }
}
node {
  name: "ENet/bottleneck1_1_conv2/biases/read"
  op: "Identity"
  input: "ENet/bottleneck1_1_conv2/biases"
  attr {
    key: "T"
    value {
      type: DT_FLOAT
    }
  }
  attr {
    key: "_class"
    value {
      list {
        s: "loc:@ENet/bottleneck1_1_conv2/biases"
      }
    }
  }
}
node {
  name: "ENet/bottleneck1_1_conv2/bias/Regularizer/l2_regularizer/scale"
  op: "Const"
  attr {
    key: "_class"
    value {
      list {
        s: "loc:@ENet/bottleneck1_1_conv2/biases"
      }
    }
  }
  attr {
    key: "dtype"
    value {
      type: DT_FLOAT
    }
  }
  attr {
    key: "value"
    value {
      tensor {
        dtype: DT_FLOAT
        tensor_shape {
        }
        float_val: 0.000199999994948
      }
    }
  }
}
node {
  name: "ENet/bottleneck1_1_conv2/bias/Regularizer/l2_regularizer/L2Loss"
  op: "L2Loss"
  input: "ENet/bottleneck1_1_conv2/biases/read"
  attr {
    key: "T"
    value {
      type: DT_FLOAT
    }
  }
  attr {
    key: "_class"
    value {
      list {
        s: "loc:@ENet/bottleneck1_1_conv2/biases"
      }
    }
  }
}
node {
  name: "ENet/bottleneck1_1_conv2/bias/Regularizer/l2_regularizer"
  op: "Mul"
  input: "ENet/bottleneck1_1_conv2/bias/Regularizer/l2_regularizer/scale"
  input: "ENet/bottleneck1_1_conv2/bias/Regularizer/l2_regularizer/L2Loss"
  attr {
    key: "T"
    value {
      type: DT_FLOAT
    }
  }
  attr {
    key: "_class"
    value {
      list {
        s: "loc:@ENet/bottleneck1_1_conv2/biases"
      }
    }
  }
}
node {
  name: "ENet/bottleneck1_1_conv2/dilation_rate"
  op: "Const"
  attr {
    key: "dtype"
    value {
      type: DT_INT32
    }
  }
  attr {
    key: "value"
    value {
      tensor {
        dtype: DT_INT32
        tensor_shape {
          dim {
            size: 2
          }
        }
        tensor_content: "\001\000\000\000\001\000\000\000"
      }
    }
  }
}
node {
  name: "ENet/bottleneck1_1_conv2/Conv2D"
  op: "Conv2D"
  input: "ENet/add_5"
  input: "ENet/bottleneck1_1_conv2/weights/read"
  attr {
    key: "T"
    value {
      type: DT_FLOAT
    }
  }
  attr {
    key: "data_format"
    value {
      s: "NHWC"
    }
  }
  attr {
    key: "dilations"
    value {
      list {
        i: 1
        i: 1
        i: 1
        i: 1
      }
    }
  }
  attr {
    key: "padding"
    value {
      s: "SAME"
    }
  }
  attr {
    key: "strides"
    value {
      list {
        i: 1
        i: 1
        i: 1
        i: 1
      }
    }
  }
  attr {
    key: "use_cudnn_on_gpu"
    value {
      b: true
    }
  }
}
node {
  name: "ENet/bottleneck1_1_conv2/BiasAdd"
  op: "BiasAdd"
  input: "ENet/bottleneck1_1_conv2/Conv2D"
  input: "ENet/bottleneck1_1_conv2/biases/read"
  attr {
    key: "T"
    value {
      type: DT_FLOAT
    }
  }
  attr {
    key: "data_format"
    value {
      s: "NHWC"
    }
  }
}
node {
  name: "ENet/bottleneck1_1_batch_norm2/Const"
  op: "Const"
  attr {
    key: "dtype"
    value {
      type: DT_FLOAT
    }
  }
  attr {
    key: "value"
    value {
      tensor {
        dtype: DT_FLOAT
        tensor_shape {
          dim {
            size: 16
          }
        }
        float_val: 1.0
      }
    }
  }
}
node {
  name: "ENet/bottleneck1_1_batch_norm2/beta/Initializer/zeros"
  op: "Const"
  attr {
    key: "_class"
    value {
      list {
        s: "loc:@ENet/bottleneck1_1_batch_norm2/beta"
      }
    }
  }
  attr {
    key: "dtype"
    value {
      type: DT_FLOAT
    }
  }
  attr {
    key: "value"
    value {
      tensor {
        dtype: DT_FLOAT
        tensor_shape {
          dim {
            size: 16
          }
        }
        float_val: 0.0
      }
    }
  }
}
node {
  name: "ENet/bottleneck1_1_batch_norm2/beta"
  op: "VariableV2"
  attr {
    key: "_class"
    value {
      list {
        s: "loc:@ENet/bottleneck1_1_batch_norm2/beta"
      }
    }
  }
  attr {
    key: "container"
    value {
      s: ""
    }
  }
  attr {
    key: "dtype"
    value {
      type: DT_FLOAT
    }
  }
  attr {
    key: "shape"
    value {
      shape {
        dim {
          size: 16
        }
      }
    }
  }
  attr {
    key: "shared_name"
    value {
      s: ""
    }
  }
}
node {
  name: "ENet/bottleneck1_1_batch_norm2/beta/Assign"
  op: "Assign"
  input: "ENet/bottleneck1_1_batch_norm2/beta"
  input: "ENet/bottleneck1_1_batch_norm2/beta/Initializer/zeros"
  attr {
    key: "T"
    value {
      type: DT_FLOAT
    }
  }
  attr {
    key: "_class"
    value {
      list {
        s: "loc:@ENet/bottleneck1_1_batch_norm2/beta"
      }
    }
  }
  attr {
    key: "use_locking"
    value {
      b: true
    }
  }
  attr {
    key: "validate_shape"
    value {
      b: true
    }
  }
}
node {
  name: "ENet/bottleneck1_1_batch_norm2/beta/read"
  op: "Identity"
  input: "ENet/bottleneck1_1_batch_norm2/beta"
  attr {
    key: "T"
    value {
      type: DT_FLOAT
    }
  }
  attr {
    key: "_class"
    value {
      list {
        s: "loc:@ENet/bottleneck1_1_batch_norm2/beta"
      }
    }
  }
}
node {
  name: "ENet/bottleneck1_1_batch_norm2/moving_mean/Initializer/zeros"
  op: "Const"
  attr {
    key: "_class"
    value {
      list {
        s: "loc:@ENet/bottleneck1_1_batch_norm2/moving_mean"
      }
    }
  }
  attr {
    key: "dtype"
    value {
      type: DT_FLOAT
    }
  }
  attr {
    key: "value"
    value {
      tensor {
        dtype: DT_FLOAT
        tensor_shape {
          dim {
            size: 16
          }
        }
        float_val: 0.0
      }
    }
  }
}
node {
  name: "ENet/bottleneck1_1_batch_norm2/moving_mean"
  op: "VariableV2"
  attr {
    key: "_class"
    value {
      list {
        s: "loc:@ENet/bottleneck1_1_batch_norm2/moving_mean"
      }
    }
  }
  attr {
    key: "container"
    value {
      s: ""
    }
  }
  attr {
    key: "dtype"
    value {
      type: DT_FLOAT
    }
  }
  attr {
    key: "shape"
    value {
      shape {
        dim {
          size: 16
        }
      }
    }
  }
  attr {
    key: "shared_name"
    value {
      s: ""
    }
  }
}
node {
  name: "ENet/bottleneck1_1_batch_norm2/moving_mean/Assign"
  op: "Assign"
  input: "ENet/bottleneck1_1_batch_norm2/moving_mean"
  input: "ENet/bottleneck1_1_batch_norm2/moving_mean/Initializer/zeros"
  attr {
    key: "T"
    value {
      type: DT_FLOAT
    }
  }
  attr {
    key: "_class"
    value {
      list {
        s: "loc:@ENet/bottleneck1_1_batch_norm2/moving_mean"
      }
    }
  }
  attr {
    key: "use_locking"
    value {
      b: true
    }
  }
  attr {
    key: "validate_shape"
    value {
      b: true
    }
  }
}
node {
  name: "ENet/bottleneck1_1_batch_norm2/moving_mean/read"
  op: "Identity"
  input: "ENet/bottleneck1_1_batch_norm2/moving_mean"
  attr {
    key: "T"
    value {
      type: DT_FLOAT
    }
  }
  attr {
    key: "_class"
    value {
      list {
        s: "loc:@ENet/bottleneck1_1_batch_norm2/moving_mean"
      }
    }
  }
}
node {
  name: "ENet/bottleneck1_1_batch_norm2/moving_variance/Initializer/ones"
  op: "Const"
  attr {
    key: "_class"
    value {
      list {
        s: "loc:@ENet/bottleneck1_1_batch_norm2/moving_variance"
      }
    }
  }
  attr {
    key: "dtype"
    value {
      type: DT_FLOAT
    }
  }
  attr {
    key: "value"
    value {
      tensor {
        dtype: DT_FLOAT
        tensor_shape {
          dim {
            size: 16
          }
        }
        float_val: 1.0
      }
    }
  }
}
node {
  name: "ENet/bottleneck1_1_batch_norm2/moving_variance"
  op: "VariableV2"
  attr {
    key: "_class"
    value {
      list {
        s: "loc:@ENet/bottleneck1_1_batch_norm2/moving_variance"
      }
    }
  }
  attr {
    key: "container"
    value {
      s: ""
    }
  }
  attr {
    key: "dtype"
    value {
      type: DT_FLOAT
    }
  }
  attr {
    key: "shape"
    value {
      shape {
        dim {
          size: 16
        }
      }
    }
  }
  attr {
    key: "shared_name"
    value {
      s: ""
    }
  }
}
node {
  name: "ENet/bottleneck1_1_batch_norm2/moving_variance/Assign"
  op: "Assign"
  input: "ENet/bottleneck1_1_batch_norm2/moving_variance"
  input: "ENet/bottleneck1_1_batch_norm2/moving_variance/Initializer/ones"
  attr {
    key: "T"
    value {
      type: DT_FLOAT
    }
  }
  attr {
    key: "_class"
    value {
      list {
        s: "loc:@ENet/bottleneck1_1_batch_norm2/moving_variance"
      }
    }
  }
  attr {
    key: "use_locking"
    value {
      b: true
    }
  }
  attr {
    key: "validate_shape"
    value {
      b: true
    }
  }
}
node {
  name: "ENet/bottleneck1_1_batch_norm2/moving_variance/read"
  op: "Identity"
  input: "ENet/bottleneck1_1_batch_norm2/moving_variance"
  attr {
    key: "T"
    value {
      type: DT_FLOAT
    }
  }
  attr {
    key: "_class"
    value {
      list {
        s: "loc:@ENet/bottleneck1_1_batch_norm2/moving_variance"
      }
    }
  }
}
node {
  name: "ENet/bottleneck1_1_batch_norm2/FusedBatchNorm"
  op: "FusedBatchNorm"
  input: "ENet/bottleneck1_1_conv2/BiasAdd"
  input: "ENet/bottleneck1_1_batch_norm2/Const"
  input: "ENet/bottleneck1_1_batch_norm2/beta/read"
  input: "ENet/bottleneck1_1_batch_norm2/moving_mean/read"
  input: "ENet/bottleneck1_1_batch_norm2/moving_variance/read"
  attr {
    key: "T"
    value {
      type: DT_FLOAT
    }
  }
  attr {
    key: "data_format"
    value {
      s: "NHWC"
    }
  }
  attr {
    key: "epsilon"
    value {
      f: 0.0010000000475
    }
  }
  attr {
    key: "is_training"
    value {
      b: false
    }
  }
}
node {
  name: "ENet/bottleneck1_1_batch_norm2/Const_1"
  op: "Const"
  attr {
    key: "dtype"
    value {
      type: DT_FLOAT
    }
  }
  attr {
    key: "value"
    value {
      tensor {
        dtype: DT_FLOAT
        tensor_shape {
        }
        float_val: 0.10000000149
      }
    }
  }
}
node {
  name: "ENet/bottleneck1_1_prelu2alpha/Initializer/Const"
  op: "Const"
  attr {
    key: "_class"
    value {
      list {
        s: "loc:@ENet/bottleneck1_1_prelu2alpha"
      }
    }
  }
  attr {
    key: "dtype"
    value {
      type: DT_FLOAT
    }
  }
  attr {
    key: "value"
    value {
      tensor {
        dtype: DT_FLOAT
        tensor_shape {
          dim {
            size: 16
          }
        }
        float_val: 0.0
      }
    }
  }
}
node {
  name: "ENet/bottleneck1_1_prelu2alpha"
  op: "VariableV2"
  attr {
    key: "_class"
    value {
      list {
        s: "loc:@ENet/bottleneck1_1_prelu2alpha"
      }
    }
  }
  attr {
    key: "container"
    value {
      s: ""
    }
  }
  attr {
    key: "dtype"
    value {
      type: DT_FLOAT
    }
  }
  attr {
    key: "shape"
    value {
      shape {
        dim {
          size: 16
        }
      }
    }
  }
  attr {
    key: "shared_name"
    value {
      s: ""
    }
  }
}
node {
  name: "ENet/bottleneck1_1_prelu2alpha/Assign"
  op: "Assign"
  input: "ENet/bottleneck1_1_prelu2alpha"
  input: "ENet/bottleneck1_1_prelu2alpha/Initializer/Const"
  attr {
    key: "T"
    value {
      type: DT_FLOAT
    }
  }
  attr {
    key: "_class"
    value {
      list {
        s: "loc:@ENet/bottleneck1_1_prelu2alpha"
      }
    }
  }
  attr {
    key: "use_locking"
    value {
      b: true
    }
  }
  attr {
    key: "validate_shape"
    value {
      b: true
    }
  }
}
node {
  name: "ENet/bottleneck1_1_prelu2alpha/read"
  op: "Identity"
  input: "ENet/bottleneck1_1_prelu2alpha"
  attr {
    key: "T"
    value {
      type: DT_FLOAT
    }
  }
  attr {
    key: "_class"
    value {
      list {
        s: "loc:@ENet/bottleneck1_1_prelu2alpha"
      }
    }
  }
}
node {
  name: "ENet/Relu_6"
  op: "Relu"
  input: "ENet/bottleneck1_1_batch_norm2/FusedBatchNorm"
  attr {
    key: "T"
    value {
      type: DT_FLOAT
    }
  }
}
node {
  name: "ENet/Abs_6"
  op: "Abs"
  input: "ENet/bottleneck1_1_batch_norm2/FusedBatchNorm"
  attr {
    key: "T"
    value {
      type: DT_FLOAT
    }
  }
}
node {
  name: "ENet/sub_6"
  op: "Sub"
  input: "ENet/bottleneck1_1_batch_norm2/FusedBatchNorm"
  input: "ENet/Abs_6"
  attr {
    key: "T"
    value {
      type: DT_FLOAT
    }
  }
}
node {
  name: "ENet/mul_12"
  op: "Mul"
  input: "ENet/bottleneck1_1_prelu2alpha/read"
  input: "ENet/sub_6"
  attr {
    key: "T"
    value {
      type: DT_FLOAT
    }
  }
}
node {
  name: "ENet/mul_13/y"
  op: "Const"
  attr {
    key: "dtype"
    value {
      type: DT_FLOAT
    }
  }
  attr {
    key: "value"
    value {
      tensor {
        dtype: DT_FLOAT
        tensor_shape {
        }
        float_val: 0.5
      }
    }
  }
}
node {
  name: "ENet/mul_13"
  op: "Mul"
  input: "ENet/mul_12"
  input: "ENet/mul_13/y"
  attr {
    key: "T"
    value {
      type: DT_FLOAT
    }
  }
}
node {
  name: "ENet/add_6"
  op: "Add"
  input: "ENet/Relu_6"
  input: "ENet/mul_13"
  attr {
    key: "T"
    value {
      type: DT_FLOAT
    }
  }
}
node {
  name: "ENet/bottleneck1_1_conv3/weights/Initializer/random_uniform/shape"
  op: "Const"
  attr {
    key: "_class"
    value {
      list {
        s: "loc:@ENet/bottleneck1_1_conv3/weights"
      }
    }
  }
  attr {
    key: "dtype"
    value {
      type: DT_INT32
    }
  }
  attr {
    key: "value"
    value {
      tensor {
        dtype: DT_INT32
        tensor_shape {
          dim {
            size: 4
          }
        }
        tensor_content: "\001\000\000\000\001\000\000\000\020\000\000\000@\000\000\000"
      }
    }
  }
}
node {
  name: "ENet/bottleneck1_1_conv3/weights/Initializer/random_uniform/min"
  op: "Const"
  attr {
    key: "_class"
    value {
      list {
        s: "loc:@ENet/bottleneck1_1_conv3/weights"
      }
    }
  }
  attr {
    key: "dtype"
    value {
      type: DT_FLOAT
    }
  }
  attr {
    key: "value"
    value {
      tensor {
        dtype: DT_FLOAT
        tensor_shape {
        }
        float_val: -0.273861289024
      }
    }
  }
}
node {
  name: "ENet/bottleneck1_1_conv3/weights/Initializer/random_uniform/max"
  op: "Const"
  attr {
    key: "_class"
    value {
      list {
        s: "loc:@ENet/bottleneck1_1_conv3/weights"
      }
    }
  }
  attr {
    key: "dtype"
    value {
      type: DT_FLOAT
    }
  }
  attr {
    key: "value"
    value {
      tensor {
        dtype: DT_FLOAT
        tensor_shape {
        }
        float_val: 0.273861289024
      }
    }
  }
}
node {
  name: "ENet/bottleneck1_1_conv3/weights/Initializer/random_uniform/RandomUniform"
  op: "RandomUniform"
  input: "ENet/bottleneck1_1_conv3/weights/Initializer/random_uniform/shape"
  attr {
    key: "T"
    value {
      type: DT_INT32
    }
  }
  attr {
    key: "_class"
    value {
      list {
        s: "loc:@ENet/bottleneck1_1_conv3/weights"
      }
    }
  }
  attr {
    key: "dtype"
    value {
      type: DT_FLOAT
    }
  }
  attr {
    key: "seed"
    value {
      i: 0
    }
  }
  attr {
    key: "seed2"
    value {
      i: 0
    }
  }
}
node {
  name: "ENet/bottleneck1_1_conv3/weights/Initializer/random_uniform/sub"
  op: "Sub"
  input: "ENet/bottleneck1_1_conv3/weights/Initializer/random_uniform/max"
  input: "ENet/bottleneck1_1_conv3/weights/Initializer/random_uniform/min"
  attr {
    key: "T"
    value {
      type: DT_FLOAT
    }
  }
  attr {
    key: "_class"
    value {
      list {
        s: "loc:@ENet/bottleneck1_1_conv3/weights"
      }
    }
  }
}
node {
  name: "ENet/bottleneck1_1_conv3/weights/Initializer/random_uniform/mul"
  op: "Mul"
  input: "ENet/bottleneck1_1_conv3/weights/Initializer/random_uniform/RandomUniform"
  input: "ENet/bottleneck1_1_conv3/weights/Initializer/random_uniform/sub"
  attr {
    key: "T"
    value {
      type: DT_FLOAT
    }
  }
  attr {
    key: "_class"
    value {
      list {
        s: "loc:@ENet/bottleneck1_1_conv3/weights"
      }
    }
  }
}
node {
  name: "ENet/bottleneck1_1_conv3/weights/Initializer/random_uniform"
  op: "Add"
  input: "ENet/bottleneck1_1_conv3/weights/Initializer/random_uniform/mul"
  input: "ENet/bottleneck1_1_conv3/weights/Initializer/random_uniform/min"
  attr {
    key: "T"
    value {
      type: DT_FLOAT
    }
  }
  attr {
    key: "_class"
    value {
      list {
        s: "loc:@ENet/bottleneck1_1_conv3/weights"
      }
    }
  }
}
node {
  name: "ENet/bottleneck1_1_conv3/weights"
  op: "VariableV2"
  attr {
    key: "_class"
    value {
      list {
        s: "loc:@ENet/bottleneck1_1_conv3/weights"
      }
    }
  }
  attr {
    key: "container"
    value {
      s: ""
    }
  }
  attr {
    key: "dtype"
    value {
      type: DT_FLOAT
    }
  }
  attr {
    key: "shape"
    value {
      shape {
        dim {
          size: 1
        }
        dim {
          size: 1
        }
        dim {
          size: 16
        }
        dim {
          size: 64
        }
      }
    }
  }
  attr {
    key: "shared_name"
    value {
      s: ""
    }
  }
}
node {
  name: "ENet/bottleneck1_1_conv3/weights/Assign"
  op: "Assign"
  input: "ENet/bottleneck1_1_conv3/weights"
  input: "ENet/bottleneck1_1_conv3/weights/Initializer/random_uniform"
  attr {
    key: "T"
    value {
      type: DT_FLOAT
    }
  }
  attr {
    key: "_class"
    value {
      list {
        s: "loc:@ENet/bottleneck1_1_conv3/weights"
      }
    }
  }
  attr {
    key: "use_locking"
    value {
      b: true
    }
  }
  attr {
    key: "validate_shape"
    value {
      b: true
    }
  }
}
node {
  name: "ENet/bottleneck1_1_conv3/weights/read"
  op: "Identity"
  input: "ENet/bottleneck1_1_conv3/weights"
  attr {
    key: "T"
    value {
      type: DT_FLOAT
    }
  }
  attr {
    key: "_class"
    value {
      list {
        s: "loc:@ENet/bottleneck1_1_conv3/weights"
      }
    }
  }
}
node {
  name: "ENet/bottleneck1_1_conv3/kernel/Regularizer/l2_regularizer/scale"
  op: "Const"
  attr {
    key: "_class"
    value {
      list {
        s: "loc:@ENet/bottleneck1_1_conv3/weights"
      }
    }
  }
  attr {
    key: "dtype"
    value {
      type: DT_FLOAT
    }
  }
  attr {
    key: "value"
    value {
      tensor {
        dtype: DT_FLOAT
        tensor_shape {
        }
        float_val: 0.000199999994948
      }
    }
  }
}
node {
  name: "ENet/bottleneck1_1_conv3/kernel/Regularizer/l2_regularizer/L2Loss"
  op: "L2Loss"
  input: "ENet/bottleneck1_1_conv3/weights/read"
  attr {
    key: "T"
    value {
      type: DT_FLOAT
    }
  }
  attr {
    key: "_class"
    value {
      list {
        s: "loc:@ENet/bottleneck1_1_conv3/weights"
      }
    }
  }
}
node {
  name: "ENet/bottleneck1_1_conv3/kernel/Regularizer/l2_regularizer"
  op: "Mul"
  input: "ENet/bottleneck1_1_conv3/kernel/Regularizer/l2_regularizer/scale"
  input: "ENet/bottleneck1_1_conv3/kernel/Regularizer/l2_regularizer/L2Loss"
  attr {
    key: "T"
    value {
      type: DT_FLOAT
    }
  }
  attr {
    key: "_class"
    value {
      list {
        s: "loc:@ENet/bottleneck1_1_conv3/weights"
      }
    }
  }
}
node {
  name: "ENet/bottleneck1_1_conv3/biases/Initializer/zeros"
  op: "Const"
  attr {
    key: "_class"
    value {
      list {
        s: "loc:@ENet/bottleneck1_1_conv3/biases"
      }
    }
  }
  attr {
    key: "dtype"
    value {
      type: DT_FLOAT
    }
  }
  attr {
    key: "value"
    value {
      tensor {
        dtype: DT_FLOAT
        tensor_shape {
          dim {
            size: 64
          }
        }
        float_val: 0.0
      }
    }
  }
}
node {
  name: "ENet/bottleneck1_1_conv3/biases"
  op: "VariableV2"
  attr {
    key: "_class"
    value {
      list {
        s: "loc:@ENet/bottleneck1_1_conv3/biases"
      }
    }
  }
  attr {
    key: "container"
    value {
      s: ""
    }
  }
  attr {
    key: "dtype"
    value {
      type: DT_FLOAT
    }
  }
  attr {
    key: "shape"
    value {
      shape {
        dim {
          size: 64
        }
      }
    }
  }
  attr {
    key: "shared_name"
    value {
      s: ""
    }
  }
}
node {
  name: "ENet/bottleneck1_1_conv3/biases/Assign"
  op: "Assign"
  input: "ENet/bottleneck1_1_conv3/biases"
  input: "ENet/bottleneck1_1_conv3/biases/Initializer/zeros"
  attr {
    key: "T"
    value {
      type: DT_FLOAT
    }
  }
  attr {
    key: "_class"
    value {
      list {
        s: "loc:@ENet/bottleneck1_1_conv3/biases"
      }
    }
  }
  attr {
    key: "use_locking"
    value {
      b: true
    }
  }
  attr {
    key: "validate_shape"
    value {
      b: true
    }
  }
}
node {
  name: "ENet/bottleneck1_1_conv3/biases/read"
  op: "Identity"
  input: "ENet/bottleneck1_1_conv3/biases"
  attr {
    key: "T"
    value {
      type: DT_FLOAT
    }
  }
  attr {
    key: "_class"
    value {
      list {
        s: "loc:@ENet/bottleneck1_1_conv3/biases"
      }
    }
  }
}
node {
  name: "ENet/bottleneck1_1_conv3/bias/Regularizer/l2_regularizer/scale"
  op: "Const"
  attr {
    key: "_class"
    value {
      list {
        s: "loc:@ENet/bottleneck1_1_conv3/biases"
      }
    }
  }
  attr {
    key: "dtype"
    value {
      type: DT_FLOAT
    }
  }
  attr {
    key: "value"
    value {
      tensor {
        dtype: DT_FLOAT
        tensor_shape {
        }
        float_val: 0.000199999994948
      }
    }
  }
}
node {
  name: "ENet/bottleneck1_1_conv3/bias/Regularizer/l2_regularizer/L2Loss"
  op: "L2Loss"
  input: "ENet/bottleneck1_1_conv3/biases/read"
  attr {
    key: "T"
    value {
      type: DT_FLOAT
    }
  }
  attr {
    key: "_class"
    value {
      list {
        s: "loc:@ENet/bottleneck1_1_conv3/biases"
      }
    }
  }
}
node {
  name: "ENet/bottleneck1_1_conv3/bias/Regularizer/l2_regularizer"
  op: "Mul"
  input: "ENet/bottleneck1_1_conv3/bias/Regularizer/l2_regularizer/scale"
  input: "ENet/bottleneck1_1_conv3/bias/Regularizer/l2_regularizer/L2Loss"
  attr {
    key: "T"
    value {
      type: DT_FLOAT
    }
  }
  attr {
    key: "_class"
    value {
      list {
        s: "loc:@ENet/bottleneck1_1_conv3/biases"
      }
    }
  }
}
node {
  name: "ENet/bottleneck1_1_conv3/dilation_rate"
  op: "Const"
  attr {
    key: "dtype"
    value {
      type: DT_INT32
    }
  }
  attr {
    key: "value"
    value {
      tensor {
        dtype: DT_INT32
        tensor_shape {
          dim {
            size: 2
          }
        }
        tensor_content: "\001\000\000\000\001\000\000\000"
      }
    }
  }
}
node {
  name: "ENet/bottleneck1_1_conv3/Conv2D"
  op: "Conv2D"
  input: "ENet/add_6"
  input: "ENet/bottleneck1_1_conv3/weights/read"
  attr {
    key: "T"
    value {
      type: DT_FLOAT
    }
  }
  attr {
    key: "data_format"
    value {
      s: "NHWC"
    }
  }
  attr {
    key: "dilations"
    value {
      list {
        i: 1
        i: 1
        i: 1
        i: 1
      }
    }
  }
  attr {
    key: "padding"
    value {
      s: "SAME"
    }
  }
  attr {
    key: "strides"
    value {
      list {
        i: 1
        i: 1
        i: 1
        i: 1
      }
    }
  }
  attr {
    key: "use_cudnn_on_gpu"
    value {
      b: true
    }
  }
}
node {
  name: "ENet/bottleneck1_1_conv3/BiasAdd"
  op: "BiasAdd"
  input: "ENet/bottleneck1_1_conv3/Conv2D"
  input: "ENet/bottleneck1_1_conv3/biases/read"
  attr {
    key: "T"
    value {
      type: DT_FLOAT
    }
  }
  attr {
    key: "data_format"
    value {
      s: "NHWC"
    }
  }
}
node {
  name: "ENet/bottleneck1_1_batch_norm3/Const"
  op: "Const"
  attr {
    key: "dtype"
    value {
      type: DT_FLOAT
    }
  }
  attr {
    key: "value"
    value {
      tensor {
        dtype: DT_FLOAT
        tensor_shape {
          dim {
            size: 64
          }
        }
        float_val: 1.0
      }
    }
  }
}
node {
  name: "ENet/bottleneck1_1_batch_norm3/beta/Initializer/zeros"
  op: "Const"
  attr {
    key: "_class"
    value {
      list {
        s: "loc:@ENet/bottleneck1_1_batch_norm3/beta"
      }
    }
  }
  attr {
    key: "dtype"
    value {
      type: DT_FLOAT
    }
  }
  attr {
    key: "value"
    value {
      tensor {
        dtype: DT_FLOAT
        tensor_shape {
          dim {
            size: 64
          }
        }
        float_val: 0.0
      }
    }
  }
}
node {
  name: "ENet/bottleneck1_1_batch_norm3/beta"
  op: "VariableV2"
  attr {
    key: "_class"
    value {
      list {
        s: "loc:@ENet/bottleneck1_1_batch_norm3/beta"
      }
    }
  }
  attr {
    key: "container"
    value {
      s: ""
    }
  }
  attr {
    key: "dtype"
    value {
      type: DT_FLOAT
    }
  }
  attr {
    key: "shape"
    value {
      shape {
        dim {
          size: 64
        }
      }
    }
  }
  attr {
    key: "shared_name"
    value {
      s: ""
    }
  }
}
node {
  name: "ENet/bottleneck1_1_batch_norm3/beta/Assign"
  op: "Assign"
  input: "ENet/bottleneck1_1_batch_norm3/beta"
  input: "ENet/bottleneck1_1_batch_norm3/beta/Initializer/zeros"
  attr {
    key: "T"
    value {
      type: DT_FLOAT
    }
  }
  attr {
    key: "_class"
    value {
      list {
        s: "loc:@ENet/bottleneck1_1_batch_norm3/beta"
      }
    }
  }
  attr {
    key: "use_locking"
    value {
      b: true
    }
  }
  attr {
    key: "validate_shape"
    value {
      b: true
    }
  }
}
node {
  name: "ENet/bottleneck1_1_batch_norm3/beta/read"
  op: "Identity"
  input: "ENet/bottleneck1_1_batch_norm3/beta"
  attr {
    key: "T"
    value {
      type: DT_FLOAT
    }
  }
  attr {
    key: "_class"
    value {
      list {
        s: "loc:@ENet/bottleneck1_1_batch_norm3/beta"
      }
    }
  }
}
node {
  name: "ENet/bottleneck1_1_batch_norm3/moving_mean/Initializer/zeros"
  op: "Const"
  attr {
    key: "_class"
    value {
      list {
        s: "loc:@ENet/bottleneck1_1_batch_norm3/moving_mean"
      }
    }
  }
  attr {
    key: "dtype"
    value {
      type: DT_FLOAT
    }
  }
  attr {
    key: "value"
    value {
      tensor {
        dtype: DT_FLOAT
        tensor_shape {
          dim {
            size: 64
          }
        }
        float_val: 0.0
      }
    }
  }
}
node {
  name: "ENet/bottleneck1_1_batch_norm3/moving_mean"
  op: "VariableV2"
  attr {
    key: "_class"
    value {
      list {
        s: "loc:@ENet/bottleneck1_1_batch_norm3/moving_mean"
      }
    }
  }
  attr {
    key: "container"
    value {
      s: ""
    }
  }
  attr {
    key: "dtype"
    value {
      type: DT_FLOAT
    }
  }
  attr {
    key: "shape"
    value {
      shape {
        dim {
          size: 64
        }
      }
    }
  }
  attr {
    key: "shared_name"
    value {
      s: ""
    }
  }
}
node {
  name: "ENet/bottleneck1_1_batch_norm3/moving_mean/Assign"
  op: "Assign"
  input: "ENet/bottleneck1_1_batch_norm3/moving_mean"
  input: "ENet/bottleneck1_1_batch_norm3/moving_mean/Initializer/zeros"
  attr {
    key: "T"
    value {
      type: DT_FLOAT
    }
  }
  attr {
    key: "_class"
    value {
      list {
        s: "loc:@ENet/bottleneck1_1_batch_norm3/moving_mean"
      }
    }
  }
  attr {
    key: "use_locking"
    value {
      b: true
    }
  }
  attr {
    key: "validate_shape"
    value {
      b: true
    }
  }
}
node {
  name: "ENet/bottleneck1_1_batch_norm3/moving_mean/read"
  op: "Identity"
  input: "ENet/bottleneck1_1_batch_norm3/moving_mean"
  attr {
    key: "T"
    value {
      type: DT_FLOAT
    }
  }
  attr {
    key: "_class"
    value {
      list {
        s: "loc:@ENet/bottleneck1_1_batch_norm3/moving_mean"
      }
    }
  }
}
node {
  name: "ENet/bottleneck1_1_batch_norm3/moving_variance/Initializer/ones"
  op: "Const"
  attr {
    key: "_class"
    value {
      list {
        s: "loc:@ENet/bottleneck1_1_batch_norm3/moving_variance"
      }
    }
  }
  attr {
    key: "dtype"
    value {
      type: DT_FLOAT
    }
  }
  attr {
    key: "value"
    value {
      tensor {
        dtype: DT_FLOAT
        tensor_shape {
          dim {
            size: 64
          }
        }
        float_val: 1.0
      }
    }
  }
}
node {
  name: "ENet/bottleneck1_1_batch_norm3/moving_variance"
  op: "VariableV2"
  attr {
    key: "_class"
    value {
      list {
        s: "loc:@ENet/bottleneck1_1_batch_norm3/moving_variance"
      }
    }
  }
  attr {
    key: "container"
    value {
      s: ""
    }
  }
  attr {
    key: "dtype"
    value {
      type: DT_FLOAT
    }
  }
  attr {
    key: "shape"
    value {
      shape {
        dim {
          size: 64
        }
      }
    }
  }
  attr {
    key: "shared_name"
    value {
      s: ""
    }
  }
}
node {
  name: "ENet/bottleneck1_1_batch_norm3/moving_variance/Assign"
  op: "Assign"
  input: "ENet/bottleneck1_1_batch_norm3/moving_variance"
  input: "ENet/bottleneck1_1_batch_norm3/moving_variance/Initializer/ones"
  attr {
    key: "T"
    value {
      type: DT_FLOAT
    }
  }
  attr {
    key: "_class"
    value {
      list {
        s: "loc:@ENet/bottleneck1_1_batch_norm3/moving_variance"
      }
    }
  }
  attr {
    key: "use_locking"
    value {
      b: true
    }
  }
  attr {
    key: "validate_shape"
    value {
      b: true
    }
  }
}
node {
  name: "ENet/bottleneck1_1_batch_norm3/moving_variance/read"
  op: "Identity"
  input: "ENet/bottleneck1_1_batch_norm3/moving_variance"
  attr {
    key: "T"
    value {
      type: DT_FLOAT
    }
  }
  attr {
    key: "_class"
    value {
      list {
        s: "loc:@ENet/bottleneck1_1_batch_norm3/moving_variance"
      }
    }
  }
}
node {
  name: "ENet/bottleneck1_1_batch_norm3/FusedBatchNorm"
  op: "FusedBatchNorm"
  input: "ENet/bottleneck1_1_conv3/BiasAdd"
  input: "ENet/bottleneck1_1_batch_norm3/Const"
  input: "ENet/bottleneck1_1_batch_norm3/beta/read"
  input: "ENet/bottleneck1_1_batch_norm3/moving_mean/read"
  input: "ENet/bottleneck1_1_batch_norm3/moving_variance/read"
  attr {
    key: "T"
    value {
      type: DT_FLOAT
    }
  }
  attr {
    key: "data_format"
    value {
      s: "NHWC"
    }
  }
  attr {
    key: "epsilon"
    value {
      f: 0.0010000000475
    }
  }
  attr {
    key: "is_training"
    value {
      b: false
    }
  }
}
node {
  name: "ENet/bottleneck1_1_batch_norm3/Const_1"
  op: "Const"
  attr {
    key: "dtype"
    value {
      type: DT_FLOAT
    }
  }
  attr {
    key: "value"
    value {
      tensor {
        dtype: DT_FLOAT
        tensor_shape {
        }
        float_val: 0.10000000149
      }
    }
  }
}
node {
  name: "ENet/bottleneck1_1_prelu3alpha/Initializer/Const"
  op: "Const"
  attr {
    key: "_class"
    value {
      list {
        s: "loc:@ENet/bottleneck1_1_prelu3alpha"
      }
    }
  }
  attr {
    key: "dtype"
    value {
      type: DT_FLOAT
    }
  }
  attr {
    key: "value"
    value {
      tensor {
        dtype: DT_FLOAT
        tensor_shape {
          dim {
            size: 64
          }
        }
        float_val: 0.0
      }
    }
  }
}
node {
  name: "ENet/bottleneck1_1_prelu3alpha"
  op: "VariableV2"
  attr {
    key: "_class"
    value {
      list {
        s: "loc:@ENet/bottleneck1_1_prelu3alpha"
      }
    }
  }
  attr {
    key: "container"
    value {
      s: ""
    }
  }
  attr {
    key: "dtype"
    value {
      type: DT_FLOAT
    }
  }
  attr {
    key: "shape"
    value {
      shape {
        dim {
          size: 64
        }
      }
    }
  }
  attr {
    key: "shared_name"
    value {
      s: ""
    }
  }
}
node {
  name: "ENet/bottleneck1_1_prelu3alpha/Assign"
  op: "Assign"
  input: "ENet/bottleneck1_1_prelu3alpha"
  input: "ENet/bottleneck1_1_prelu3alpha/Initializer/Const"
  attr {
    key: "T"
    value {
      type: DT_FLOAT
    }
  }
  attr {
    key: "_class"
    value {
      list {
        s: "loc:@ENet/bottleneck1_1_prelu3alpha"
      }
    }
  }
  attr {
    key: "use_locking"
    value {
      b: true
    }
  }
  attr {
    key: "validate_shape"
    value {
      b: true
    }
  }
}
node {
  name: "ENet/bottleneck1_1_prelu3alpha/read"
  op: "Identity"
  input: "ENet/bottleneck1_1_prelu3alpha"
  attr {
    key: "T"
    value {
      type: DT_FLOAT
    }
  }
  attr {
    key: "_class"
    value {
      list {
        s: "loc:@ENet/bottleneck1_1_prelu3alpha"
      }
    }
  }
}
node {
  name: "ENet/Relu_7"
  op: "Relu"
…
    key: "use_locking"
    value {
      b: true
    }
  }
  attr {
    key: "validate_shape"
    value {
      b: true
    }
  }
}
node {
  name: "save/Assign_527"
  op: "Assign"
  input: "ENet/bottleneck5_1_conv3/biases"
  input: "save/RestoreV2:527"
  attr {
    key: "T"
    value {
      type: DT_FLOAT
    }
  }
  attr {
    key: "_class"
    value {
      list {
        s: "loc:@ENet/bottleneck5_1_conv3/biases"
      }
    }
  }
  attr {
    key: "use_locking"
    value {
      b: true
    }
  }
  attr {
    key: "validate_shape"
    value {
      b: true
    }
  }
}
node {
  name: "save/Assign_528"
  op: "Assign"
  input: "ENet/bottleneck5_1_conv3/weights"
  input: "save/RestoreV2:528"
  attr {
    key: "T"
    value {
      type: DT_FLOAT
    }
  }
  attr {
    key: "_class"
    value {
      list {
        s: "loc:@ENet/bottleneck5_1_conv3/weights"
      }
    }
  }
  attr {
    key: "use_locking"
    value {
      b: true
    }
  }
  attr {
    key: "validate_shape"
    value {
      b: true
    }
  }
}
node {
  name: "save/Assign_529"
  op: "Assign"
  input: "ENet/fullconv/biases"
  input: "save/RestoreV2:529"
  attr {
    key: "T"
    value {
      type: DT_FLOAT
    }
  }
  attr {
    key: "_class"
    value {
      list {
        s: "loc:@ENet/fullconv/biases"
      }
    }
  }
  attr {
    key: "use_locking"
    value {
      b: true
    }
  }
  attr {
    key: "validate_shape"
    value {
      b: true
    }
  }
}
node {
  name: "save/Assign_530"
  op: "Assign"
  input: "ENet/fullconv/weights"
  input: "save/RestoreV2:530"
  attr {
    key: "T"
    value {
      type: DT_FLOAT
    }
  }
  attr {
    key: "_class"
    value {
      list {
        s: "loc:@ENet/fullconv/weights"
      }
    }
  }
  attr {
    key: "use_locking"
    value {
      b: true
    }
  }
  attr {
    key: "validate_shape"
    value {
      b: true
    }
  }
}
node {
  name: "save/Assign_531"
  op: "Assign"
  input: "ENet/initial_block_1_batchnorm/beta"
  input: "save/RestoreV2:531"
  attr {
    key: "T"
    value {
      type: DT_FLOAT
    }
  }
  attr {
    key: "_class"
    value {
      list {
        s: "loc:@ENet/initial_block_1_batchnorm/beta"
      }
    }
  }
  attr {
    key: "use_locking"
    value {
      b: true
    }
  }
  attr {
    key: "validate_shape"
    value {
      b: true
    }
  }
}
node {
  name: "save/Assign_532"
  op: "Assign"
  input: "ENet/initial_block_1_batchnorm/moving_mean"
  input: "save/RestoreV2:532"
  attr {
    key: "T"
    value {
      type: DT_FLOAT
    }
  }
  attr {
    key: "_class"
    value {
      list {
        s: "loc:@ENet/initial_block_1_batchnorm/moving_mean"
      }
    }
  }
  attr {
    key: "use_locking"
    value {
      b: true
    }
  }
  attr {
    key: "validate_shape"
    value {
      b: true
    }
  }
}
node {
  name: "save/Assign_533"
  op: "Assign"
  input: "ENet/initial_block_1_batchnorm/moving_variance"
  input: "save/RestoreV2:533"
  attr {
    key: "T"
    value {
      type: DT_FLOAT
    }
  }
  attr {
    key: "_class"
    value {
      list {
        s: "loc:@ENet/initial_block_1_batchnorm/moving_variance"
      }
    }
  }
  attr {
    key: "use_locking"
    value {
      b: true
    }
  }
  attr {
    key: "validate_shape"
    value {
      b: true
    }
  }
}
node {
  name: "save/Assign_534"
  op: "Assign"
  input: "ENet/initial_block_1_conv/biases"
  input: "save/RestoreV2:534"
  attr {
    key: "T"
    value {
      type: DT_FLOAT
    }
  }
  attr {
    key: "_class"
    value {
      list {
        s: "loc:@ENet/initial_block_1_conv/biases"
      }
    }
  }
  attr {
    key: "use_locking"
    value {
      b: true
    }
  }
  attr {
    key: "validate_shape"
    value {
      b: true
    }
  }
}
node {
  name: "save/Assign_535"
  op: "Assign"
  input: "ENet/initial_block_1_conv/weights"
  input: "save/RestoreV2:535"
  attr {
    key: "T"
    value {
      type: DT_FLOAT
    }
  }
  attr {
    key: "_class"
    value {
      list {
        s: "loc:@ENet/initial_block_1_conv/weights"
      }
    }
  }
  attr {
    key: "use_locking"
    value {
      b: true
    }
  }
  attr {
    key: "validate_shape"
    value {
      b: true
    }
  }
}
node {
  name: "save/Assign_536"
  op: "Assign"
  input: "ENet/initial_block_1_prelualpha"
  input: "save/RestoreV2:536"
  attr {
    key: "T"
    value {
      type: DT_FLOAT
    }
  }
  attr {
    key: "_class"
    value {
      list {
        s: "loc:@ENet/initial_block_1_prelualpha"
      }
    }
  }
  attr {
    key: "use_locking"
    value {
      b: true
    }
  }
  attr {
    key: "validate_shape"
    value {
      b: true
    }
  }
}
node {
  name: "save/restore_all"
  op: "NoOp"
  input: "^save/Assign"
  input: "^save/Assign_1"
  input: "^save/Assign_10"
  input: "^save/Assign_100"
  input: "^save/Assign_101"
  input: "^save/Assign_102"
  input: "^save/Assign_103"
  input: "^save/Assign_104"
  input: "^save/Assign_105"
  input: "^save/Assign_106"
  input: "^save/Assign_107"
  input: "^save/Assign_108"
  input: "^save/Assign_109"
  input: "^save/Assign_11"
  input: "^save/Assign_110"
  input: "^save/Assign_111"
  input: "^save/Assign_112"
  input: "^save/Assign_113"
  input: "^save/Assign_114"
  input: "^save/Assign_115"
  input: "^save/Assign_116"
  input: "^save/Assign_117"
  input: "^save/Assign_118"
  input: "^save/Assign_119"
  input: "^save/Assign_12"
  input: "^save/Assign_120"
  input: "^save/Assign_121"
  input: "^save/Assign_122"
  input: "^save/Assign_123"
  input: "^save/Assign_124"
  input: "^save/Assign_125"
  input: "^save/Assign_126"
  input: "^save/Assign_127"
  input: "^save/Assign_128"
  input: "^save/Assign_129"
  input: "^save/Assign_13"
  input: "^save/Assign_130"
  input: "^save/Assign_131"
  input: "^save/Assign_132"
  input: "^save/Assign_133"
  input: "^save/Assign_134"
  input: "^save/Assign_135"
  input: "^save/Assign_136"
  input: "^save/Assign_137"
  input: "^save/Assign_138"
  input: "^save/Assign_139"
  input: "^save/Assign_14"
  input: "^save/Assign_140"
  input: "^save/Assign_141"
  input: "^save/Assign_142"
  input: "^save/Assign_143"
  input: "^save/Assign_144"
  input: "^save/Assign_145"
  input: "^save/Assign_146"
  input: "^save/Assign_147"
  input: "^save/Assign_148"
  input: "^save/Assign_149"
  input: "^save/Assign_15"
  input: "^save/Assign_150"
  input: "^save/Assign_151"
  input: "^save/Assign_152"
  input: "^save/Assign_153"
  input: "^save/Assign_154"
  input: "^save/Assign_155"
  input: "^save/Assign_156"
  input: "^save/Assign_157"
  input: "^save/Assign_158"
  input: "^save/Assign_159"
  input: "^save/Assign_16"
  input: "^save/Assign_160"
  input: "^save/Assign_161"
  input: "^save/Assign_162"
  input: "^save/Assign_163"
  input: "^save/Assign_164"
  input: "^save/Assign_165"
  input: "^save/Assign_166"
  input: "^save/Assign_167"
  input: "^save/Assign_168"
  input: "^save/Assign_169"
  input: "^save/Assign_17"
  input: "^save/Assign_170"
  input: "^save/Assign_171"
  input: "^save/Assign_172"
  input: "^save/Assign_173"
  input: "^save/Assign_174"
  input: "^save/Assign_175"
  input: "^save/Assign_176"
  input: "^save/Assign_177"
  input: "^save/Assign_178"
  input: "^save/Assign_179"
  input: "^save/Assign_18"
  input: "^save/Assign_180"
  input: "^save/Assign_181"
  input: "^save/Assign_182"
  input: "^save/Assign_183"
  input: "^save/Assign_184"
  input: "^save/Assign_185"
  input: "^save/Assign_186"
  input: "^save/Assign_187"
  input: "^save/Assign_188"
  input: "^save/Assign_189"
  input: "^save/Assign_19"
  input: "^save/Assign_190"
  input: "^save/Assign_191"
  input: "^save/Assign_192"
  input: "^save/Assign_193"
  input: "^save/Assign_194"
  input: "^save/Assign_195"
  input: "^save/Assign_196"
  input: "^save/Assign_197"
  input: "^save/Assign_198"
  input: "^save/Assign_199"
  input: "^save/Assign_2"
  input: "^save/Assign_20"
  input: "^save/Assign_200"
  input: "^save/Assign_201"
  input: "^save/Assign_202"
  input: "^save/Assign_203"
  input: "^save/Assign_204"
  input: "^save/Assign_205"
  input: "^save/Assign_206"
  input: "^save/Assign_207"
  input: "^save/Assign_208"
  input: "^save/Assign_209"
  input: "^save/Assign_21"
  input: "^save/Assign_210"
  input: "^save/Assign_211"
  input: "^save/Assign_212"
  input: "^save/Assign_213"
  input: "^save/Assign_214"
  input: "^save/Assign_215"
  input: "^save/Assign_216"
  input: "^save/Assign_217"
  input: "^save/Assign_218"
  input: "^save/Assign_219"
  input: "^save/Assign_22"
  input: "^save/Assign_220"
  input: "^save/Assign_221"
  input: "^save/Assign_222"
  input: "^save/Assign_223"
  input: "^save/Assign_224"
  input: "^save/Assign_225"
  input: "^save/Assign_226"
  input: "^save/Assign_227"
  input: "^save/Assign_228"
  input: "^save/Assign_229"
  input: "^save/Assign_23"
  input: "^save/Assign_230"
  input: "^save/Assign_231"
  input: "^save/Assign_232"
  input: "^save/Assign_233"
  input: "^save/Assign_234"
  input: "^save/Assign_235"
  input: "^save/Assign_236"
  input: "^save/Assign_237"
  input: "^save/Assign_238"
  input: "^save/Assign_239"
  input: "^save/Assign_24"
  input: "^save/Assign_240"
  input: "^save/Assign_241"
  input: "^save/Assign_242"
  input: "^save/Assign_243"
  input: "^save/Assign_244"
  input: "^save/Assign_245"
  input: "^save/Assign_246"
  input: "^save/Assign_247"
  input: "^save/Assign_248"
  input: "^save/Assign_249"
  input: "^save/Assign_25"
  input: "^save/Assign_250"
  input: "^save/Assign_251"
  input: "^save/Assign_252"
  input: "^save/Assign_253"
  input: "^save/Assign_254"
  input: "^save/Assign_255"
  input: "^save/Assign_256"
  input: "^save/Assign_257"
  input: "^save/Assign_258"
  input: "^save/Assign_259"
  input: "^save/Assign_26"
  input: "^save/Assign_260"
  input: "^save/Assign_261"
  input: "^save/Assign_262"
  input: "^save/Assign_263"
  input: "^save/Assign_264"
  input: "^save/Assign_265"
  input: "^save/Assign_266"
  input: "^save/Assign_267"
  input: "^save/Assign_268"
  input: "^save/Assign_269"
  input: "^save/Assign_27"
  input: "^save/Assign_270"
  input: "^save/Assign_271"
  input: "^save/Assign_272"
  input: "^save/Assign_273"
  input: "^save/Assign_274"
  input: "^save/Assign_275"
  input: "^save/Assign_276"
  input: "^save/Assign_277"
  input: "^save/Assign_278"
  input: "^save/Assign_279"
  input: "^save/Assign_28"
  input: "^save/Assign_280"
  input: "^save/Assign_281"
  input: "^save/Assign_282"
  input: "^save/Assign_283"
  input: "^save/Assign_284"
  input: "^save/Assign_285"
  input: "^save/Assign_286"
  input: "^save/Assign_287"
  input: "^save/Assign_288"
  input: "^save/Assign_289"
  input: "^save/Assign_29"
  input: "^save/Assign_290"
  input: "^save/Assign_291"
  input: "^save/Assign_292"
  input: "^save/Assign_293"
  input: "^save/Assign_294"
  input: "^save/Assign_295"
  input: "^save/Assign_296"
  input: "^save/Assign_297"
  input: "^save/Assign_298"
  input: "^save/Assign_299"
  input: "^save/Assign_3"
  input: "^save/Assign_30"
  input: "^save/Assign_300"
  input: "^save/Assign_301"
  input: "^save/Assign_302"
  input: "^save/Assign_303"
  input: "^save/Assign_304"
  input: "^save/Assign_305"
  input: "^save/Assign_306"
  input: "^save/Assign_307"
  input: "^save/Assign_308"
  input: "^save/Assign_309"
  input: "^save/Assign_31"
  input: "^save/Assign_310"
  input: "^save/Assign_311"
  input: "^save/Assign_312"
  input: "^save/Assign_313"
  input: "^save/Assign_314"
  input: "^save/Assign_315"
  input: "^save/Assign_316"
  input: "^save/Assign_317"
  input: "^save/Assign_318"
  input: "^save/Assign_319"
  input: "^save/Assign_32"
  input: "^save/Assign_320"
  input: "^save/Assign_321"
  input: "^save/Assign_322"
  input: "^save/Assign_323"
  input: "^save/Assign_324"
  input: "^save/Assign_325"
  input: "^save/Assign_326"
  input: "^save/Assign_327"
  input: "^save/Assign_328"
  input: "^save/Assign_329"
  input: "^save/Assign_33"
  input: "^save/Assign_330"
  input: "^save/Assign_331"
  input: "^save/Assign_332"
  input: "^save/Assign_333"
  input: "^save/Assign_334"
  input: "^save/Assign_335"
  input: "^save/Assign_336"
  input: "^save/Assign_337"
  input: "^save/Assign_338"
  input: "^save/Assign_339"
  input: "^save/Assign_34"
  input: "^save/Assign_340"
  input: "^save/Assign_341"
  input: "^save/Assign_342"
  input: "^save/Assign_343"
  input: "^save/Assign_344"
  input: "^save/Assign_345"
  input: "^save/Assign_346"
  input: "^save/Assign_347"
  input: "^save/Assign_348"
  input: "^save/Assign_349"
  input: "^save/Assign_35"
  input: "^save/Assign_350"
  input: "^save/Assign_351"
  input: "^save/Assign_352"
  input: "^save/Assign_353"
  input: "^save/Assign_354"
  input: "^save/Assign_355"
  input: "^save/Assign_356"
  input: "^save/Assign_357"
  input: "^save/Assign_358"
  input: "^save/Assign_359"
  input: "^save/Assign_36"
  input: "^save/Assign_360"
  input: "^save/Assign_361"
  input: "^save/Assign_362"
  input: "^save/Assign_363"
  input: "^save/Assign_364"
  input: "^save/Assign_365"
  input: "^save/Assign_366"
  input: "^save/Assign_367"
  input: "^save/Assign_368"
  input: "^save/Assign_369"
  input: "^save/Assign_37"
  input: "^save/Assign_370"
  input: "^save/Assign_371"
  input: "^save/Assign_372"
  input: "^save/Assign_373"
  input: "^save/Assign_374"
  input: "^save/Assign_375"
  input: "^save/Assign_376"
  input: "^save/Assign_377"
  input: "^save/Assign_378"
  input: "^save/Assign_379"
  input: "^save/Assign_38"
  input: "^save/Assign_380"
  input: "^save/Assign_381"
  input: "^save/Assign_382"
  input: "^save/Assign_383"
  input: "^save/Assign_384"
  input: "^save/Assign_385"
  input: "^save/Assign_386"
  input: "^save/Assign_387"
  input: "^save/Assign_388"
  input: "^save/Assign_389"
  input: "^save/Assign_39"
  input: "^save/Assign_390"
  input: "^save/Assign_391"
  input: "^save/Assign_392"
  input: "^save/Assign_393"
  input: "^save/Assign_394"
  input: "^save/Assign_395"
  input: "^save/Assign_396"
  input: "^save/Assign_397"
  input: "^save/Assign_398"
  input: "^save/Assign_399"
  input: "^save/Assign_4"
  input: "^save/Assign_40"
  input: "^save/Assign_400"
  input: "^save/Assign_401"
  input: "^save/Assign_402"
  input: "^save/Assign_403"
  input: "^save/Assign_404"
  input: "^save/Assign_405"
  input: "^save/Assign_406"
  input: "^save/Assign_407"
  input: "^save/Assign_408"
  input: "^save/Assign_409"
  input: "^save/Assign_41"
  input: "^save/Assign_410"
  input: "^save/Assign_411"
  input: "^save/Assign_412"
  input: "^save/Assign_413"
  input: "^save/Assign_414"
  input: "^save/Assign_415"
  input: "^save/Assign_416"
  input: "^save/Assign_417"
  input: "^save/Assign_418"
  input: "^save/Assign_419"
  input: "^save/Assign_42"
  input: "^save/Assign_420"
  input: "^save/Assign_421"
  input: "^save/Assign_422"
  input: "^save/Assign_423"
  input: "^save/Assign_424"
  input: "^save/Assign_425"
  input: "^save/Assign_426"
  input: "^save/Assign_427"
  input: "^save/Assign_428"
  input: "^save/Assign_429"
  input: "^save/Assign_43"
  input: "^save/Assign_430"
  input: "^save/Assign_431"
  input: "^save/Assign_432"
  input: "^save/Assign_433"
  input: "^save/Assign_434"
  input: "^save/Assign_435"
  input: "^save/Assign_436"
  input: "^save/Assign_437"
  input: "^save/Assign_438"
  input: "^save/Assign_439"
  input: "^save/Assign_44"
  input: "^save/Assign_440"
  input: "^save/Assign_441"
  input: "^save/Assign_442"
  input: "^save/Assign_443"
  input: "^save/Assign_444"
  input: "^save/Assign_445"
  input: "^save/Assign_446"
  input: "^save/Assign_447"
  input: "^save/Assign_448"
  input: "^save/Assign_449"
  input: "^save/Assign_45"
  input: "^save/Assign_450"
  input: "^save/Assign_451"
  input: "^save/Assign_452"
  input: "^save/Assign_453"
  input: "^save/Assign_454"
  input: "^save/Assign_455"
  input: "^save/Assign_456"
  input: "^save/Assign_457"
  input: "^save/Assign_458"
  input: "^save/Assign_459"
  input: "^save/Assign_46"
  input: "^save/Assign_460"
  input: "^save/Assign_461"
  input: "^save/Assign_462"
  input: "^save/Assign_463"
  input: "^save/Assign_464"
  input: "^save/Assign_465"
  input: "^save/Assign_466"
  input: "^save/Assign_467"
  input: "^save/Assign_468"
  input: "^save/Assign_469"
  input: "^save/Assign_47"
  input: "^save/Assign_470"
  input: "^save/Assign_471"
  input: "^save/Assign_472"
  input: "^save/Assign_473"
  input: "^save/Assign_474"
  input: "^save/Assign_475"
  input: "^save/Assign_476"
  input: "^save/Assign_477"
  input: "^save/Assign_478"
  input: "^save/Assign_479"
  input: "^save/Assign_48"
  input: "^save/Assign_480"
  input: "^save/Assign_481"
  input: "^save/Assign_482"
  input: "^save/Assign_483"
  input: "^save/Assign_484"
  input: "^save/Assign_485"
  input: "^save/Assign_486"
  input: "^save/Assign_487"
  input: "^save/Assign_488"
  input: "^save/Assign_489"
  input: "^save/Assign_49"
  input: "^save/Assign_490"
  input: "^save/Assign_491"
  input: "^save/Assign_492"
  input: "^save/Assign_493"
  input: "^save/Assign_494"
  input: "^save/Assign_495"
  input: "^save/Assign_496"
  input: "^save/Assign_497"
  input: "^save/Assign_498"
  input: "^save/Assign_499"
  input: "^save/Assign_5"
  input: "^save/Assign_50"
  input: "^save/Assign_500"
  input: "^save/Assign_501"
  input: "^save/Assign_502"
  input: "^save/Assign_503"
  input: "^save/Assign_504"
  input: "^save/Assign_505"
  input: "^save/Assign_506"
  input: "^save/Assign_507"
  input: "^save/Assign_508"
  input: "^save/Assign_509"
  input: "^save/Assign_51"
  input: "^save/Assign_510"
  input: "^save/Assign_511"
  input: "^save/Assign_512"
  input: "^save/Assign_513"
  input: "^save/Assign_514"
  input: "^save/Assign_515"
  input: "^save/Assign_516"
  input: "^save/Assign_517"
  input: "^save/Assign_518"
  input: "^save/Assign_519"
  input: "^save/Assign_52"
  input: "^save/Assign_520"
  input: "^save/Assign_521"
  input: "^save/Assign_522"
  input: "^save/Assign_523"
  input: "^save/Assign_524"
  input: "^save/Assign_525"
  input: "^save/Assign_526"
  input: "^save/Assign_527"
  input: "^save/Assign_528"
  input: "^save/Assign_529"
  input: "^save/Assign_53"
  input: "^save/Assign_530"
  input: "^save/Assign_531"
  input: "^save/Assign_532"
  input: "^save/Assign_533"
  input: "^save/Assign_534"
  input: "^save/Assign_535"
  input: "^save/Assign_536"
  input: "^save/Assign_54"
  input: "^save/Assign_55"
  input: "^save/Assign_56"
  input: "^save/Assign_57"
  input: "^save/Assign_58"
  input: "^save/Assign_59"
  input: "^save/Assign_6"
  input: "^save/Assign_60"
  input: "^save/Assign_61"
  input: "^save/Assign_62"
  input: "^save/Assign_63"
  input: "^save/Assign_64"
  input: "^save/Assign_65"
  input: "^save/Assign_66"
  input: "^save/Assign_67"
  input: "^save/Assign_68"
  input: "^save/Assign_69"
  input: "^save/Assign_7"
  input: "^save/Assign_70"
  input: "^save/Assign_71"
  input: "^save/Assign_72"
  input: "^save/Assign_73"
  input: "^save/Assign_74"
  input: "^save/Assign_75"
  input: "^save/Assign_76"
  input: "^save/Assign_77"
  input: "^save/Assign_78"
  input: "^save/Assign_79"
  input: "^save/Assign_8"
  input: "^save/Assign_80"
  input: "^save/Assign_81"
  input: "^save/Assign_82"
  input: "^save/Assign_83"
  input: "^save/Assign_84"
  input: "^save/Assign_85"
  input: "^save/Assign_86"
  input: "^save/Assign_87"
  input: "^save/Assign_88"
  input: "^save/Assign_89"
  input: "^save/Assign_9"
  input: "^save/Assign_90"
  input: "^save/Assign_91"
  input: "^save/Assign_92"
  input: "^save/Assign_93"
  input: "^save/Assign_94"
  input: "^save/Assign_95"
  input: "^save/Assign_96"
  input: "^save/Assign_97"
  input: "^save/Assign_98"
  input: "^save/Assign_99"
}
node {
  name: "init"
  op: "NoOp"
  input: "^ENet/bottleneck1_0_batch_norm1/beta/Assign"
  input: "^ENet/bottleneck1_0_batch_norm1/moving_mean/Assign"
  input: "^ENet/bottleneck1_0_batch_norm1/moving_variance/Assign"
  input: "^ENet/bottleneck1_0_batch_norm2/beta/Assign"
  input: "^ENet/bottleneck1_0_batch_norm2/moving_mean/Assign"
  input: "^ENet/bottleneck1_0_batch_norm2/moving_variance/Assign"
  input: "^ENet/bottleneck1_0_batch_norm3/beta/Assign"
  input: "^ENet/bottleneck1_0_batch_norm3/moving_mean/Assign"
  input: "^ENet/bottleneck1_0_batch_norm3/moving_variance/Assign"
  input: "^ENet/bottleneck1_0_conv1/biases/Assign"
  input: "^ENet/bottleneck1_0_conv1/weights/Assign"
  input: "^ENet/bottleneck1_0_conv2/biases/Assign"
  input: "^ENet/bottleneck1_0_conv2/weights/Assign"
  input: "^ENet/bottleneck1_0_conv3/biases/Assign"
  input: "^ENet/bottleneck1_0_conv3/weights/Assign"
  input: "^ENet/bottleneck1_0_last_prelualpha/Assign"
  input: "^ENet/bottleneck1_0_prelu1alpha/Assign"
  input: "^ENet/bottleneck1_0_prelu2alpha/Assign"
  input: "^ENet/bottleneck1_0_prelu3alpha/Assign"
  input: "^ENet/bottleneck1_1_batch_norm1/beta/Assign"
  input: "^ENet/bottleneck1_1_batch_norm1/moving_mean/Assign"
  input: "^ENet/bottleneck1_1_batch_norm1/moving_variance/Assign"
  input: "^ENet/bottleneck1_1_batch_norm2/beta/Assign"
  input: "^ENet/bottleneck1_1_batch_norm2/moving_mean/Assign"
  input: "^ENet/bottleneck1_1_batch_norm2/moving_variance/Assign"
  input: "^ENet/bottleneck1_1_batch_norm3/beta/Assign"
  input: "^ENet/bottleneck1_1_batch_norm3/moving_mean/Assign"
  input: "^ENet/bottleneck1_1_batch_norm3/moving_variance/Assign"
  input: "^ENet/bottleneck1_1_conv1/biases/Assign"
  input: "^ENet/bottleneck1_1_conv1/weights/Assign"
  input: "^ENet/bottleneck1_1_conv2/biases/Assign"
  input: "^ENet/bottleneck1_1_conv2/weights/Assign"
  input: "^ENet/bottleneck1_1_conv3/biases/Assign"
  input: "^ENet/bottleneck1_1_conv3/weights/Assign"
  input: "^ENet/bottleneck1_1_last_prelualpha/Assign"
  input: "^ENet/bottleneck1_1_prelu1alpha/Assign"
  input: "^ENet/bottleneck1_1_prelu2alpha/Assign"
  input: "^ENet/bottleneck1_1_prelu3alpha/Assign"
  input: "^ENet/bottleneck1_1_prelu4alpha/Assign"
  input: "^ENet/bottleneck1_2_batch_norm1/beta/Assign"
  input: "^ENet/bottleneck1_2_batch_norm1/moving_mean/Assign"
  input: "^ENet/bottleneck1_2_batch_norm1/moving_variance/Assign"
  input: "^ENet/bottleneck1_2_batch_norm2/beta/Assign"
  input: "^ENet/bottleneck1_2_batch_norm2/moving_mean/Assign"
  input: "^ENet/bottleneck1_2_batch_norm2/moving_variance/Assign"
  input: "^ENet/bottleneck1_2_batch_norm3/beta/Assign"
  input: "^ENet/bottleneck1_2_batch_norm3/moving_mean/Assign"
  input: "^ENet/bottleneck1_2_batch_norm3/moving_variance/Assign"
  input: "^ENet/bottleneck1_2_conv1/biases/Assign"
  input: "^ENet/bottleneck1_2_conv1/weights/Assign"
  input: "^ENet/bottleneck1_2_conv2/biases/Assign"
  input: "^ENet/bottleneck1_2_conv2/weights/Assign"
  input: "^ENet/bottleneck1_2_conv3/biases/Assign"
  input: "^ENet/bottleneck1_2_conv3/weights/Assign"
  input: "^ENet/bottleneck1_2_last_prelualpha/Assign"
  input: "^ENet/bottleneck1_2_prelu1alpha/Assign"
  input: "^ENet/bottleneck1_2_prelu2alpha/Assign"
  input: "^ENet/bottleneck1_2_prelu3alpha/Assign"
  input: "^ENet/bottleneck1_2_prelu4alpha/Assign"
  input: "^ENet/bottleneck1_3_batch_norm1/beta/Assign"
  input: "^ENet/bottleneck1_3_batch_norm1/moving_mean/Assign"
  input: "^ENet/bottleneck1_3_batch_norm1/moving_variance/Assign"
  input: "^ENet/bottleneck1_3_batch_norm2/beta/Assign"
  input: "^ENet/bottleneck1_3_batch_norm2/moving_mean/Assign"
  input: "^ENet/bottleneck1_3_batch_norm2/moving_variance/Assign"
  input: "^ENet/bottleneck1_3_batch_norm3/beta/Assign"
  input: "^ENet/bottleneck1_3_batch_norm3/moving_mean/Assign"
  input: "^ENet/bottleneck1_3_batch_norm3/moving_variance/Assign"
  input: "^ENet/bottleneck1_3_conv1/biases/Assign"
  input: "^ENet/bottleneck1_3_conv1/weights/Assign"
  input: "^ENet/bottleneck1_3_conv2/biases/Assign"
  input: "^ENet/bottleneck1_3_conv2/weights/Assign"
  input: "^ENet/bottleneck1_3_conv3/biases/Assign"
  input: "^ENet/bottleneck1_3_conv3/weights/Assign"
  input: "^ENet/bottleneck1_3_last_prelualpha/Assign"
  input: "^ENet/bottleneck1_3_prelu1alpha/Assign"
  input: "^ENet/bottleneck1_3_prelu2alpha/Assign"
  input: "^ENet/bottleneck1_3_prelu3alpha/Assign"
  input: "^ENet/bottleneck1_3_prelu4alpha/Assign"
  input: "^ENet/bottleneck1_4_batch_norm1/beta/Assign"
  input: "^ENet/bottleneck1_4_batch_norm1/moving_mean/Assign"
  input: "^ENet/bottleneck1_4_batch_norm1/moving_variance/Assign"
  input: "^ENet/bottleneck1_4_batch_norm2/beta/Assign"
  input: "^ENet/bottleneck1_4_batch_norm2/moving_mean/Assign"
  input: "^ENet/bottleneck1_4_batch_norm2/moving_variance/Assign"
  input: "^ENet/bottleneck1_4_batch_norm3/beta/Assign"
  input: "^ENet/bottleneck1_4_batch_norm3/moving_mean/Assign"
  input: "^ENet/bottleneck1_4_batch_norm3/moving_variance/Assign"
  input: "^ENet/bottleneck1_4_conv1/biases/Assign"
  input: "^ENet/bottleneck1_4_conv1/weights/Assign"
  input: "^ENet/bottleneck1_4_conv2/biases/Assign"
  input: "^ENet/bottleneck1_4_conv2/weights/Assign"
  input: "^ENet/bottleneck1_4_conv3/biases/Assign"
  input: "^ENet/bottleneck1_4_conv3/weights/Assign"
  input: "^ENet/bottleneck1_4_last_prelualpha/Assign"
  input: "^ENet/bottleneck1_4_prelu1alpha/Assign"
  input: "^ENet/bottleneck1_4_prelu2alpha/Assign"
  input: "^ENet/bottleneck1_4_prelu3alpha/Assign"
  input: "^ENet/bottleneck1_4_prelu4alpha/Assign"
  input: "^ENet/bottleneck2_0_batch_norm1/beta/Assign"
  input: "^ENet/bottleneck2_0_batch_norm1/moving_mean/Assign"
  input: "^ENet/bottleneck2_0_batch_norm1/moving_variance/Assign"
  input: "^ENet/bottleneck2_0_batch_norm2/beta/Assign"
  input: "^ENet/bottleneck2_0_batch_norm2/moving_mean/Assign"
  input: "^ENet/bottleneck2_0_batch_norm2/moving_variance/Assign"
  input: "^ENet/bottleneck2_0_batch_norm3/beta/Assign"
  input: "^ENet/bottleneck2_0_batch_norm3/moving_mean/Assign"
  input: "^ENet/bottleneck2_0_batch_norm3/moving_variance/Assign"
  input: "^ENet/bottleneck2_0_conv1/biases/Assign"
  input: "^ENet/bottleneck2_0_conv1/weights/Assign"
  input: "^ENet/bottleneck2_0_conv2/biases/Assign"
  input: "^ENet/bottleneck2_0_conv2/weights/Assign"
  input: "^ENet/bottleneck2_0_conv3/biases/Assign"
  input: "^ENet/bottleneck2_0_conv3/weights/Assign"
  input: "^ENet/bottleneck2_0_last_prelualpha/Assign"
  input: "^ENet/bottleneck2_0_prelu1alpha/Assign"
  input: "^ENet/bottleneck2_0_prelu2alpha/Assign"
  input: "^ENet/bottleneck2_0_prelu3alpha/Assign"
  input: "^ENet/bottleneck2_1_batch_norm1/beta/Assign"
  input: "^ENet/bottleneck2_1_batch_norm1/moving_mean/Assign"
  input: "^ENet/bottleneck2_1_batch_norm1/moving_variance/Assign"
  input: "^ENet/bottleneck2_1_batch_norm2/beta/Assign"
  input: "^ENet/bottleneck2_1_batch_norm2/moving_mean/Assign"
  input: "^ENet/bottleneck2_1_batch_norm2/moving_variance/Assign"
  input: "^ENet/bottleneck2_1_batch_norm3/beta/Assign"
  input: "^ENet/bottleneck2_1_batch_norm3/moving_mean/Assign"
  input: "^ENet/bottleneck2_1_batch_norm3/moving_variance/Assign"
  input: "^ENet/bottleneck2_1_conv1/biases/Assign"
  input: "^ENet/bottleneck2_1_conv1/weights/Assign"
  input: "^ENet/bottleneck2_1_conv2/biases/Assign"
  input: "^ENet/bottleneck2_1_conv2/weights/Assign"
  input: "^ENet/bottleneck2_1_conv3/biases/Assign"
  input: "^ENet/bottleneck2_1_conv3/weights/Assign"
  input: "^ENet/bottleneck2_1_last_prelualpha/Assign"
  input: "^ENet/bottleneck2_1_prelu1alpha/Assign"
  input: "^ENet/bottleneck2_1_prelu2alpha/Assign"
  input: "^ENet/bottleneck2_1_prelu3alpha/Assign"
  input: "^ENet/bottleneck2_1_prelu4alpha/Assign"
  input: "^ENet/bottleneck2_2_batch_norm1/beta/Assign"
  input: "^ENet/bottleneck2_2_batch_norm1/moving_mean/Assign"
  input: "^ENet/bottleneck2_2_batch_norm1/moving_variance/Assign"
  input: "^ENet/bottleneck2_2_batch_norm2/beta/Assign"
  input: "^ENet/bottleneck2_2_batch_norm2/moving_mean/Assign"
  input: "^ENet/bottleneck2_2_batch_norm2/moving_variance/Assign"
  input: "^ENet/bottleneck2_2_batch_norm3/beta/Assign"
  input: "^ENet/bottleneck2_2_batch_norm3/moving_mean/Assign"
  input: "^ENet/bottleneck2_2_batch_norm3/moving_variance/Assign"
  input: "^ENet/bottleneck2_2_conv1/biases/Assign"
  input: "^ENet/bottleneck2_2_conv1/weights/Assign"
  input: "^ENet/bottleneck2_2_conv3/biases/Assign"
  input: "^ENet/bottleneck2_2_conv3/weights/Assign"
  input: "^ENet/bottleneck2_2_dilated_conv2/biases/Assign"
  input: "^ENet/bottleneck2_2_dilated_conv2/weights/Assign"
  input: "^ENet/bottleneck2_2_last_prelualpha/Assign"
  input: "^ENet/bottleneck2_2_prelu1alpha/Assign"
  input: "^ENet/bottleneck2_2_prelu2alpha/Assign"
  input: "^ENet/bottleneck2_2_prelu3alpha/Assign"
  input: "^ENet/bottleneck2_2_prelu4alpha/Assign"
  input: "^ENet/bottleneck2_3_asymmetric_conv2a/biases/Assign"
  input: "^ENet/bottleneck2_3_asymmetric_conv2a/weights/Assign"
  input: "^ENet/bottleneck2_3_asymmetric_conv2b/biases/Assign"
  input: "^ENet/bottleneck2_3_asymmetric_conv2b/weights/Assign"
  input: "^ENet/bottleneck2_3_batch_norm1/beta/Assign"
  input: "^ENet/bottleneck2_3_batch_norm1/moving_mean/Assign"
  input: "^ENet/bottleneck2_3_batch_norm1/moving_variance/Assign"
  input: "^ENet/bottleneck2_3_batch_norm2/beta/Assign"
  input: "^ENet/bottleneck2_3_batch_norm2/moving_mean/Assign"
  input: "^ENet/bottleneck2_3_batch_norm2/moving_variance/Assign"
  input: "^ENet/bottleneck2_3_batch_norm3/beta/Assign"
  input: "^ENet/bottleneck2_3_batch_norm3/moving_mean/Assign"
  input: "^ENet/bottleneck2_3_batch_norm3/moving_variance/Assign"
  input: "^ENet/bottleneck2_3_conv1/biases/Assign"
  input: "^ENet/bottleneck2_3_conv1/weights/Assign"
  input: "^ENet/bottleneck2_3_conv3/biases/Assign"
  input: "^ENet/bottleneck2_3_conv3/weights/Assign"
  input: "^ENet/bottleneck2_3_last_prelualpha/Assign"
  input: "^ENet/bottleneck2_3_prelu1alpha/Assign"
  input: "^ENet/bottleneck2_3_prelu2alpha/Assign"
  input: "^ENet/bottleneck2_3_prelu3alpha/Assign"
  input: "^ENet/bottleneck2_3_prelu4alpha/Assign"
  input: "^ENet/bottleneck2_4_batch_norm1/beta/Assign"
  input: "^ENet/bottleneck2_4_batch_norm1/moving_mean/Assign"
  input: "^ENet/bottleneck2_4_batch_norm1/moving_variance/Assign"
  input: "^ENet/bottleneck2_4_batch_norm2/beta/Assign"
  input: "^ENet/bottleneck2_4_batch_norm2/moving_mean/Assign"
  input: "^ENet/bottleneck2_4_batch_norm2/moving_variance/Assign"
  input: "^ENet/bottleneck2_4_batch_norm3/beta/Assign"
  input: "^ENet/bottleneck2_4_batch_norm3/moving_mean/Assign"
  input: "^ENet/bottleneck2_4_batch_norm3/moving_variance/Assign"
  input: "^ENet/bottleneck2_4_conv1/biases/Assign"
  input: "^ENet/bottleneck2_4_conv1/weights/Assign"
  input: "^ENet/bottleneck2_4_conv3/biases/Assign"
  input: "^ENet/bottleneck2_4_conv3/weights/Assign"
  input: "^ENet/bottleneck2_4_dilated_conv2/biases/Assign"
  input: "^ENet/bottleneck2_4_dilated_conv2/weights/Assign"
  input: "^ENet/bottleneck2_4_last_prelualpha/Assign"
  input: "^ENet/bottleneck2_4_prelu1alpha/Assign"
  input: "^ENet/bottleneck2_4_prelu2alpha/Assign"
  input: "^ENet/bottleneck2_4_prelu3alpha/Assign"
  input: "^ENet/bottleneck2_4_prelu4alpha/Assign"
  input: "^ENet/bottleneck2_5_batch_norm1/beta/Assign"
  input: "^ENet/bottleneck2_5_batch_norm1/moving_mean/Assign"
  input: "^ENet/bottleneck2_5_batch_norm1/moving_variance/Assign"
  input: "^ENet/bottleneck2_5_batch_norm2/beta/Assign"
  input: "^ENet/bottleneck2_5_batch_norm2/moving_mean/Assign"
  input: "^ENet/bottleneck2_5_batch_norm2/moving_variance/Assign"
  input: "^ENet/bottleneck2_5_batch_norm3/beta/Assign"
  input: "^ENet/bottleneck2_5_batch_norm3/moving_mean/Assign"
  input: "^ENet/bottleneck2_5_batch_norm3/moving_variance/Assign"
  input: "^ENet/bottleneck2_5_conv1/biases/Assign"
  input: "^ENet/bottleneck2_5_conv1/weights/Assign"
  input: "^ENet/bottleneck2_5_conv2/biases/Assign"
  input: "^ENet/bottleneck2_5_conv2/weights/Assign"
  input: "^ENet/bottleneck2_5_conv3/biases/Assign"
  input: "^ENet/bottleneck2_5_conv3/weights/Assign"
  input: "^ENet/bottleneck2_5_last_prelualpha/Assign"
  input: "^ENet/bottleneck2_5_prelu1alpha/Assign"
  input: "^ENet/bottleneck2_5_prelu2alpha/Assign"
  input: "^ENet/bottleneck2_5_prelu3alpha/Assign"
  input: "^ENet/bottleneck2_5_prelu4alpha/Assign"
  input: "^ENet/bottleneck2_6_batch_norm1/beta/Assign"
  input: "^ENet/bottleneck2_6_batch_norm1/moving_mean/Assign"
  input: "^ENet/bottleneck2_6_batch_norm1/moving_variance/Assign"
  input: "^ENet/bottleneck2_6_batch_norm2/beta/Assign"
  input: "^ENet/bottleneck2_6_batch_norm2/moving_mean/Assign"
  input: "^ENet/bottleneck2_6_batch_norm2/moving_variance/Assign"
  input: "^ENet/bottleneck2_6_batch_norm3/beta/Assign"
  input: "^ENet/bottleneck2_6_batch_norm3/moving_mean/Assign"
  input: "^ENet/bottleneck2_6_batch_norm3/moving_variance/Assign"
  input: "^ENet/bottleneck2_6_conv1/biases/Assign"
  input: "^ENet/bottleneck2_6_conv1/weights/Assign"
  input: "^ENet/bottleneck2_6_conv3/biases/Assign"
  input: "^ENet/bottleneck2_6_conv3/weights/Assign"
  input: "^ENet/bottleneck2_6_dilated_conv2/biases/Assign"
  input: "^ENet/bottleneck2_6_dilated_conv2/weights/Assign"
  input: "^ENet/bottleneck2_6_last_prelualpha/Assign"
  input: "^ENet/bottleneck2_6_prelu1alpha/Assign"
  input: "^ENet/bottleneck2_6_prelu2alpha/Assign"
  input: "^ENet/bottleneck2_6_prelu3alpha/Assign"
  input: "^ENet/bottleneck2_6_prelu4alpha/Assign"
  input: "^ENet/bottleneck2_7_asymmetric_conv2a/biases/Assign"
  input: "^ENet/bottleneck2_7_asymmetric_conv2a/weights/Assign"
  input: "^ENet/bottleneck2_7_asymmetric_conv2b/biases/Assign"
  input: "^ENet/bottleneck2_7_asymmetric_conv2b/weights/Assign"
  input: "^ENet/bottleneck2_7_batch_norm1/beta/Assign"
  input: "^ENet/bottleneck2_7_batch_norm1/moving_mean/Assign"
  input: "^ENet/bottleneck2_7_batch_norm1/moving_variance/Assign"
  input: "^ENet/bottleneck2_7_batch_norm2/beta/Assign"
  input: "^ENet/bottleneck2_7_batch_norm2/moving_mean/Assign"
  input: "^ENet/bottleneck2_7_batch_norm2/moving_variance/Assign"
  input: "^ENet/bottleneck2_7_batch_norm3/beta/Assign"
  input: "^ENet/bottleneck2_7_batch_norm3/moving_mean/Assign"
  input: "^ENet/bottleneck2_7_batch_norm3/moving_variance/Assign"
  input: "^ENet/bottleneck2_7_conv1/biases/Assign"
  input: "^ENet/bottleneck2_7_conv1/weights/Assign"
  input: "^ENet/bottleneck2_7_conv3/biases/Assign"
  input: "^ENet/bottleneck2_7_conv3/weights/Assign"
  input: "^ENet/bottleneck2_7_last_prelualpha/Assign"
  input: "^ENet/bottleneck2_7_prelu1alpha/Assign"
  input: "^ENet/bottleneck2_7_prelu2alpha/Assign"
  input: "^ENet/bottleneck2_7_prelu3alpha/Assign"
  input: "^ENet/bottleneck2_7_prelu4alpha/Assign"
  input: "^ENet/bottleneck2_8_batch_norm1/beta/Assign"
  input: "^ENet/bottleneck2_8_batch_norm1/moving_mean/Assign"
  input: "^ENet/bottleneck2_8_batch_norm1/moving_variance/Assign"
  input: "^ENet/bottleneck2_8_batch_norm2/beta/Assign"
  input: "^ENet/bottleneck2_8_batch_norm2/moving_mean/Assign"
  input: "^ENet/bottleneck2_8_batch_norm2/moving_variance/Assign"
  input: "^ENet/bottleneck2_8_batch_norm3/beta/Assign"
  input: "^ENet/bottleneck2_8_batch_norm3/moving_mean/Assign"
  input: "^ENet/bottleneck2_8_batch_norm3/moving_variance/Assign"
  input: "^ENet/bottleneck2_8_conv1/biases/Assign"
  input: "^ENet/bottleneck2_8_conv1/weights/Assign"
  input: "^ENet/bottleneck2_8_conv3/biases/Assign"
  input: "^ENet/bottleneck2_8_conv3/weights/Assign"
  input: "^ENet/bottleneck2_8_dilated_conv2/biases/Assign"
  input: "^ENet/bottleneck2_8_dilated_conv2/weights/Assign"
  input: "^ENet/bottleneck2_8_last_prelualpha/Assign"
  input: "^ENet/bottleneck2_8_prelu1alpha/Assign"
  input: "^ENet/bottleneck2_8_prelu2alpha/Assign"
  input: "^ENet/bottleneck2_8_prelu3alpha/Assign"
  input: "^ENet/bottleneck2_8_prelu4alpha/Assign"
  input: "^ENet/bottleneck3_1_batch_norm1/beta/Assign"
  input: "^ENet/bottleneck3_1_batch_norm1/moving_mean/Assign"
  input: "^ENet/bottleneck3_1_batch_norm1/moving_variance/Assign"
  input: "^ENet/bottleneck3_1_batch_norm2/beta/Assign"
  input: "^ENet/bottleneck3_1_batch_norm2/moving_mean/Assign"
  input: "^ENet/bottleneck3_1_batch_norm2/moving_variance/Assign"
  input: "^ENet/bottleneck3_1_batch_norm3/beta/Assign"
  input: "^ENet/bottleneck3_1_batch_norm3/moving_mean/Assign"
  input: "^ENet/bottleneck3_1_batch_norm3/moving_variance/Assign"
  input: "^ENet/bottleneck3_1_conv1/biases/Assign"
  input: "^ENet/bottleneck3_1_conv1/weights/Assign"
  input: "^ENet/bottleneck3_1_conv2/biases/Assign"
  input: "^ENet/bottleneck3_1_conv2/weights/Assign"
  input: "^ENet/bottleneck3_1_conv3/biases/Assign"
  input: "^ENet/bottleneck3_1_conv3/weights/Assign"
  input: "^ENet/bottleneck3_1_last_prelualpha/Assign"
  input: "^ENet/bottleneck3_1_prelu1alpha/Assign"
  input: "^ENet/bottleneck3_1_prelu2alpha/Assign"
  input: "^ENet/bottleneck3_1_prelu3alpha/Assign"
  input: "^ENet/bottleneck3_1_prelu4alpha/Assign"
  input: "^ENet/bottleneck3_2_batch_norm1/beta/Assign"
  input: "^ENet/bottleneck3_2_batch_norm1/moving_mean/Assign"
  input: "^ENet/bottleneck3_2_batch_norm1/moving_variance/Assign"
  input: "^ENet/bottleneck3_2_batch_norm2/beta/Assign"
  input: "^ENet/bottleneck3_2_batch_norm2/moving_mean/Assign"
  input: "^ENet/bottleneck3_2_batch_norm2/moving_variance/Assign"
  input: "^ENet/bottleneck3_2_batch_norm3/beta/Assign"
  input: "^ENet/bottleneck3_2_batch_norm3/moving_mean/Assign"
  input: "^ENet/bottleneck3_2_batch_norm3/moving_variance/Assign"
  input: "^ENet/bottleneck3_2_conv1/biases/Assign"
  input: "^ENet/bottleneck3_2_conv1/weights/Assign"
  input: "^ENet/bottleneck3_2_conv3/biases/Assign"
  input: "^ENet/bottleneck3_2_conv3/weights/Assign"
  input: "^ENet/bottleneck3_2_dilated_conv2/biases/Assign"
  input: "^ENet/bottleneck3_2_dilated_conv2/weights/Assign"
  input: "^ENet/bottleneck3_2_last_prelualpha/Assign"
  input: "^ENet/bottleneck3_2_prelu1alpha/Assign"
  input: "^ENet/bottleneck3_2_prelu2alpha/Assign"
  input: "^ENet/bottleneck3_2_prelu3alpha/Assign"
  input: "^ENet/bottleneck3_2_prelu4alpha/Assign"
  input: "^ENet/bottleneck3_3_asymmetric_conv2a/biases/Assign"
  input: "^ENet/bottleneck3_3_asymmetric_conv2a/weights/Assign"
  input: "^ENet/bottleneck3_3_asymmetric_conv2b/biases/Assign"
  input: "^ENet/bottleneck3_3_asymmetric_conv2b/weights/Assign"
  input: "^ENet/bottleneck3_3_batch_norm1/beta/Assign"
  input: "^ENet/bottleneck3_3_batch_norm1/moving_mean/Assign"
  input: "^ENet/bottleneck3_3_batch_norm1/moving_variance/Assign"
  input: "^ENet/bottleneck3_3_batch_norm2/beta/Assign"
  input: "^ENet/bottleneck3_3_batch_norm2/moving_mean/Assign"
  input: "^ENet/bottleneck3_3_batch_norm2/moving_variance/Assign"
  input: "^ENet/bottleneck3_3_batch_norm3/beta/Assign"
  input: "^ENet/bottleneck3_3_batch_norm3/moving_mean/Assign"
  input: "^ENet/bottleneck3_3_batch_norm3/moving_variance/Assign"
  input: "^ENet/bottleneck3_3_conv1/biases/Assign"
  input: "^ENet/bottleneck3_3_conv1/weights/Assign"
  input: "^ENet/bottleneck3_3_conv3/biases/Assign"
  input: "^ENet/bottleneck3_3_conv3/weights/Assign"
  input: "^ENet/bottleneck3_3_last_prelualpha/Assign"
  input: "^ENet/bottleneck3_3_prelu1alpha/Assign"
  input: "^ENet/bottleneck3_3_prelu2alpha/Assign"
  input: "^ENet/bottleneck3_3_prelu3alpha/Assign"
  input: "^ENet/bottleneck3_3_prelu4alpha/Assign"
  input: "^ENet/bottleneck3_4_batch_norm1/beta/Assign"
  input: "^ENet/bottleneck3_4_batch_norm1/moving_mean/Assign"
  input: "^ENet/bottleneck3_4_batch_norm1/moving_variance/Assign"
  input: "^ENet/bottleneck3_4_batch_norm2/beta/Assign"
  input: "^ENet/bottleneck3_4_batch_norm2/moving_mean/Assign"
  input: "^ENet/bottleneck3_4_batch_norm2/moving_variance/Assign"
  input: "^ENet/bottleneck3_4_batch_norm3/beta/Assign"
  input: "^ENet/bottleneck3_4_batch_norm3/moving_mean/Assign"
  input: "^ENet/bottleneck3_4_batch_norm3/moving_variance/Assign"
  input: "^ENet/bottleneck3_4_conv1/biases/Assign"
  input: "^ENet/bottleneck3_4_conv1/weights/Assign"
  input: "^ENet/bottleneck3_4_conv3/biases/Assign"
  input: "^ENet/bottleneck3_4_conv3/weights/Assign"
  input: "^ENet/bottleneck3_4_dilated_conv2/biases/Assign"
  input: "^ENet/bottleneck3_4_dilated_conv2/weights/Assign"
  input: "^ENet/bottleneck3_4_last_prelualpha/Assign"
  input: "^ENet/bottleneck3_4_prelu1alpha/Assign"
  input: "^ENet/bottleneck3_4_prelu2alpha/Assign"
  input: "^ENet/bottleneck3_4_prelu3alpha/Assign"
  input: "^ENet/bottleneck3_4_prelu4alpha/Assign"
  input: "^ENet/bottleneck3_5_batch_norm1/beta/Assign"
  input: "^ENet/bottleneck3_5_batch_norm1/moving_mean/Assign"
  input: "^ENet/bottleneck3_5_batch_norm1/moving_variance/Assign"
  input: "^ENet/bottleneck3_5_batch_norm2/beta/Assign"
  input: "^ENet/bottleneck3_5_batch_norm2/moving_mean/Assign"
  input: "^ENet/bottleneck3_5_batch_norm2/moving_variance/Assign"
  input: "^ENet/bottleneck3_5_batch_norm3/beta/Assign"
  input: "^ENet/bottleneck3_5_batch_norm3/moving_mean/Assign"
  input: "^ENet/bottleneck3_5_batch_norm3/moving_variance/Assign"
  input: "^ENet/bottleneck3_5_conv1/biases/Assign"
  input: "^ENet/bottleneck3_5_conv1/weights/Assign"
  input: "^ENet/bottleneck3_5_conv2/biases/Assign"
  input: "^ENet/bottleneck3_5_conv2/weights/Assign"
  input: "^ENet/bottleneck3_5_conv3/biases/Assign"
  input: "^ENet/bottleneck3_5_conv3/weights/Assign"
  input: "^ENet/bottleneck3_5_last_prelualpha/Assign"
  input: "^ENet/bottleneck3_5_prelu1alpha/Assign"
  input: "^ENet/bottleneck3_5_prelu2alpha/Assign"
  input: "^ENet/bottleneck3_5_prelu3alpha/Assign"
  input: "^ENet/bottleneck3_5_prelu4alpha/Assign"
  input: "^ENet/bottleneck3_6_batch_norm1/beta/Assign"
  input: "^ENet/bottleneck3_6_batch_norm1/moving_mean/Assign"
  input: "^ENet/bottleneck3_6_batch_norm1/moving_variance/Assign"
  input: "^ENet/bottleneck3_6_batch_norm2/beta/Assign"
  input: "^ENet/bottleneck3_6_batch_norm2/moving_mean/Assign"
  input: "^ENet/bottleneck3_6_batch_norm2/moving_variance/Assign"
  input: "^ENet/bottleneck3_6_batch_norm3/beta/Assign"
  input: "^ENet/bottleneck3_6_batch_norm3/moving_mean/Assign"
  input: "^ENet/bottleneck3_6_batch_norm3/moving_variance/Assign"
  input: "^ENet/bottleneck3_6_conv1/biases/Assign"
  input: "^ENet/bottleneck3_6_conv1/weights/Assign"
  input: "^ENet/bottleneck3_6_conv3/biases/Assign"
  input: "^ENet/bottleneck3_6_conv3/weights/Assign"
  input: "^ENet/bottleneck3_6_dilated_conv2/biases/Assign"
  input: "^ENet/bottleneck3_6_dilated_conv2/weights/Assign"
  input: "^ENet/bottleneck3_6_last_prelualpha/Assign"
  input: "^ENet/bottleneck3_6_prelu1alpha/Assign"
  input: "^ENet/bottleneck3_6_prelu2alpha/Assign"
  input: "^ENet/bottleneck3_6_prelu3alpha/Assign"
  input: "^ENet/bottleneck3_6_prelu4alpha/Assign"
  input: "^ENet/bottleneck3_7_asymmetric_conv2a/biases/Assign"
  input: "^ENet/bottleneck3_7_asymmetric_conv2a/weights/Assign"
  input: "^ENet/bottleneck3_7_asymmetric_conv2b/biases/Assign"
  input: "^ENet/bottleneck3_7_asymmetric_conv2b/weights/Assign"
  input: "^ENet/bottleneck3_7_batch_norm1/beta/Assign"
  input: "^ENet/bottleneck3_7_batch_norm1/moving_mean/Assign"
  input: "^ENet/bottleneck3_7_batch_norm1/moving_variance/Assign"
  input: "^ENet/bottleneck3_7_batch_norm2/beta/Assign"
  input: "^ENet/bottleneck3_7_batch_norm2/moving_mean/Assign"
  input: "^ENet/bottleneck3_7_batch_norm2/moving_variance/Assign"
  input: "^ENet/bottleneck3_7_batch_norm3/beta/Assign"
  input: "^ENet/bottleneck3_7_batch_norm3/moving_mean/Assign"
  input: "^ENet/bottleneck3_7_batch_norm3/moving_variance/Assign"
  input: "^ENet/bottleneck3_7_conv1/biases/Assign"
  input: "^ENet/bottleneck3_7_conv1/weights/Assign"
  input: "^ENet/bottleneck3_7_conv3/biases/Assign"
  input: "^ENet/bottleneck3_7_conv3/weights/Assign"
  input: "^ENet/bottleneck3_7_last_prelualpha/Assign"
  input: "^ENet/bottleneck3_7_prelu1alpha/Assign"
  input: "^ENet/bottleneck3_7_prelu2alpha/Assign"
  input: "^ENet/bottleneck3_7_prelu3alpha/Assign"
  input: "^ENet/bottleneck3_7_prelu4alpha/Assign"
  input: "^ENet/bottleneck3_8_batch_norm1/beta/Assign"
  input: "^ENet/bottleneck3_8_batch_norm1/moving_mean/Assign"
  input: "^ENet/bottleneck3_8_batch_norm1/moving_variance/Assign"
  input: "^ENet/bottleneck3_8_batch_norm2/beta/Assign"
  input: "^ENet/bottleneck3_8_batch_norm2/moving_mean/Assign"
  input: "^ENet/bottleneck3_8_batch_norm2/moving_variance/Assign"
  input: "^ENet/bottleneck3_8_batch_norm3/beta/Assign"
  input: "^ENet/bottleneck3_8_batch_norm3/moving_mean/Assign"
  input: "^ENet/bottleneck3_8_batch_norm3/moving_variance/Assign"
  input: "^ENet/bottleneck3_8_conv1/biases/Assign"
  input: "^ENet/bottleneck3_8_conv1/weights/Assign"
  input: "^ENet/bottleneck3_8_conv3/biases/Assign"
  input: "^ENet/bottleneck3_8_conv3/weights/Assign"
  input: "^ENet/bottleneck3_8_dilated_conv2/biases/Assign"
  input: "^ENet/bottleneck3_8_dilated_conv2/weights/Assign"
  input: "^ENet/bottleneck3_8_last_prelualpha/Assign"
  input: "^ENet/bottleneck3_8_prelu1alpha/Assign"
  input: "^ENet/bottleneck3_8_prelu2alpha/Assign"
  input: "^ENet/bottleneck3_8_prelu3alpha/Assign"
  input: "^ENet/bottleneck3_8_prelu4alpha/Assign"
  input: "^ENet/bottleneck4_0_batch_norm2/beta/Assign"
  input: "^ENet/bottleneck4_0_batch_norm2/moving_mean/Assign"
  input: "^ENet/bottleneck4_0_batch_norm2/moving_variance/Assign"
  input: "^ENet/bottleneck4_0_batch_norm3/beta/Assign"
  input: "^ENet/bottleneck4_0_batch_norm3/moving_mean/Assign"
  input: "^ENet/bottleneck4_0_batch_norm3/moving_variance/Assign"
  input: "^ENet/bottleneck4_0_batch_norm4/beta/Assign"
  input: "^ENet/bottleneck4_0_batch_norm4/moving_mean/Assign"
  input: "^ENet/bottleneck4_0_batch_norm4/moving_variance/Assign"
  input: "^ENet/bottleneck4_0_conv1/biases/Assign"
  input: "^ENet/bottleneck4_0_conv1/weights/Assign"
  input: "^ENet/bottleneck4_0_conv3/biases/Assign"
  input: "^ENet/bottleneck4_0_conv3/weights/Assign"
  input: "^ENet/bottleneck4_0_main_conv1/biases/Assign"
  input: "^ENet/bottleneck4_0_main_conv1/weights/Assign"
  input: "^ENet/bottleneck4_0_transposed_conv2_filters/Assign"
  input: "^ENet/bottleneck4_0batch_norm1/beta/Assign"
  input: "^ENet/bottleneck4_0batch_norm1/moving_mean/Assign"
  input: "^ENet/bottleneck4_0batch_norm1/moving_variance/Assign"
  input: "^ENet/bottleneck4_1_batch_norm1/beta/Assign"
  input: "^ENet/bottleneck4_1_batch_norm1/moving_mean/Assign"
  input: "^ENet/bottleneck4_1_batch_norm1/moving_variance/Assign"
  input: "^ENet/bottleneck4_1_batch_norm2/beta/Assign"
  input: "^ENet/bottleneck4_1_batch_norm2/moving_mean/Assign"
  input: "^ENet/bottleneck4_1_batch_norm2/moving_variance/Assign"
  input: "^ENet/bottleneck4_1_batch_norm3/beta/Assign"
  input: "^ENet/bottleneck4_1_batch_norm3/moving_mean/Assign"
  input: "^ENet/bottleneck4_1_batch_norm3/moving_variance/Assign"
  input: "^ENet/bottleneck4_1_conv1/biases/Assign"
  input: "^ENet/bottleneck4_1_conv1/weights/Assign"
  input: "^ENet/bottleneck4_1_conv2/biases/Assign"
  input: "^ENet/bottleneck4_1_conv2/weights/Assign"
  input: "^ENet/bottleneck4_1_conv3/biases/Assign"
  input: "^ENet/bottleneck4_1_conv3/weights/Assign"
  input: "^ENet/bottleneck4_2_batch_norm1/beta/Assign"
  input: "^ENet/bottleneck4_2_batch_norm1/moving_mean/Assign"
  input: "^ENet/bottleneck4_2_batch_norm1/moving_variance/Assign"
  input: "^ENet/bottleneck4_2_batch_norm2/beta/Assign"
  input: "^ENet/bottleneck4_2_batch_norm2/moving_mean/Assign"
  input: "^ENet/bottleneck4_2_batch_norm2/moving_variance/Assign"
  input: "^ENet/bottleneck4_2_batch_norm3/beta/Assign"
  input: "^ENet/bottleneck4_2_batch_norm3/moving_mean/Assign"
  input: "^ENet/bottleneck4_2_batch_norm3/moving_variance/Assign"
  input: "^ENet/bottleneck4_2_conv1/biases/Assign"
  input: "^ENet/bottleneck4_2_conv1/weights/Assign"
  input: "^ENet/bottleneck4_2_conv2/biases/Assign"
  input: "^ENet/bottleneck4_2_conv2/weights/Assign"
  input: "^ENet/bottleneck4_2_conv3/biases/Assign"
  input: "^ENet/bottleneck4_2_conv3/weights/Assign"
  input: "^ENet/bottleneck5_0_batch_norm2/beta/Assign"
  input: "^ENet/bottleneck5_0_batch_norm2/moving_mean/Assign"
  input: "^ENet/bottleneck5_0_batch_norm2/moving_variance/Assign"
  input: "^ENet/bottleneck5_0_batch_norm3/beta/Assign"
  input: "^ENet/bottleneck5_0_batch_norm3/moving_mean/Assign"
  input: "^ENet/bottleneck5_0_batch_norm3/moving_variance/Assign"
  input: "^ENet/bottleneck5_0_batch_norm4/beta/Assign"
  input: "^ENet/bottleneck5_0_batch_norm4/moving_mean/Assign"
  input: "^ENet/bottleneck5_0_batch_norm4/moving_variance/Assign"
  input: "^ENet/bottleneck5_0_conv1/biases/Assign"
  input: "^ENet/bottleneck5_0_conv1/weights/Assign"
  input: "^ENet/bottleneck5_0_conv3/biases/Assign"
  input: "^ENet/bottleneck5_0_conv3/weights/Assign"
  input: "^ENet/bottleneck5_0_main_conv1/biases/Assign"
  input: "^ENet/bottleneck5_0_main_conv1/weights/Assign"
  input: "^ENet/bottleneck5_0_transposed_conv2_filters/Assign"
  input: "^ENet/bottleneck5_0batch_norm1/beta/Assign"
  input: "^ENet/bottleneck5_0batch_norm1/moving_mean/Assign"
  input: "^ENet/bottleneck5_0batch_norm1/moving_variance/Assign"
  input: "^ENet/bottleneck5_1_batch_norm1/beta/Assign"
  input: "^ENet/bottleneck5_1_batch_norm1/moving_mean/Assign"
  input: "^ENet/bottleneck5_1_batch_norm1/moving_variance/Assign"
  input: "^ENet/bottleneck5_1_batch_norm2/beta/Assign"
  input: "^ENet/bottleneck5_1_batch_norm2/moving_mean/Assign"
  input: "^ENet/bottleneck5_1_batch_norm2/moving_variance/Assign"
  input: "^ENet/bottleneck5_1_batch_norm3/beta/Assign"
  input: "^ENet/bottleneck5_1_batch_norm3/moving_mean/Assign"
  input: "^ENet/bottleneck5_1_batch_norm3/moving_variance/Assign"
  input: "^ENet/bottleneck5_1_conv1/biases/Assign"
  input: "^ENet/bottleneck5_1_conv1/weights/Assign"
  input: "^ENet/bottleneck5_1_conv2/biases/Assign"
  input: "^ENet/bottleneck5_1_conv2/weights/Assign"
  input: "^ENet/bottleneck5_1_conv3/biases/Assign"
  input: "^ENet/bottleneck5_1_conv3/weights/Assign"
  input: "^ENet/fullconv/biases/Assign"
  input: "^ENet/fullconv/weights/Assign"
  input: "^ENet/initial_block_1_batchnorm/beta/Assign"
  input: "^ENet/initial_block_1_batchnorm/moving_mean/Assign"
  input: "^ENet/initial_block_1_batchnorm/moving_variance/Assign"
  input: "^ENet/initial_block_1_conv/biases/Assign"
  input: "^ENet/initial_block_1_conv/weights/Assign"
  input: "^ENet/initial_block_1_prelualpha/Assign"
}
node {
  name: "init_1"
  op: "NoOp"
}
versions {
  producer: 27
}
